saved_models/convcnp-matern/checkpoint.pth.tar (torch_old, 86142 bytes, 45 tensors)

conv_net.conv_net.0.weight f4 [16, 8, 5]
00000000: 8943 a1bd 4e30 61be 9607 1dbe 2a3c f13c
00000010: b8c8 5ebd b2ae 21bb 63b2 9a3e 8cc8 4e3e
00000020: ff16 d53b 5c7a 713d 3107 80be daf9 2e3e
00000030: 8218 6f3c 4882 a43d ab32 833d fb41 b93b
00000040: 547e 233e 1101 693e edb7 593d 1478 cbbd
00000050: 3677 56be a0ab b93c 3b8a f8bd 988e cabd
00000060: 7f1a b9bc 5247 7dbd ab65 f0bd 1aea 12be
00000070: 418a 71be 255b a7bd a9c1 01bd 7224 183d
00000080: f1ca d53d 8ae5 25be a175 8ebd 85c2 1dbe
00000090: 9498 593d 6563 b7bd 8957 a2bd fe1e 053d
000000a0: 2847 61be 9b46 3cbc 98a6 93bd 217a 62be
000000b0: 1517 d0bd 1327 79bd beb0 f53d 2020 a13d
000000c0: 8f9a e7bd bfbc 24be fea8 af3e 98c2 32bd
000000d0: 56b2 7f3e 6207 78be a9f7 4f3c 9ff4 4cbe
000000e0: a1ca 5b3e 0bcb 98bd fd4f 8f3e 7628 563d
000000f0: cae2 42bd f88e b63d dff6 0b3e 6b42 b7bd
00000100: e0ce 3cbb 6bd3 cb3c bc8b 523d 9213 17bc
00000110: 6f88 093d 667f 89be 57f2 113e e343 6fbd
00000120: 6f2c 613e 9b08 db3c a3c8 89bd df29 453d
00000130: 94a4 acbd 9499 c33d b98e 0dbe 506d 73be
00000140: b019 4e3d 2466 203d 84be d73d c0bd fabd
00000150: 973d b33e 5ba8 933e a6fa d7bc f12e 593e
00000160: 9ca0 08be 10f2 a1bd 7426 ff3c ac47 e63c
00000170: 6da5 513d c9f9 febc 3933 ccbd e2d6 3ebe
00000180: 0812 f2bd 67b6 243e 52d2 bdbd b6ab ff3c
00000190: 3ecc e13d d825 983d 4048 413d 8ef7 fdbb
000001a0: 2e5f b5bd 22af 1e3e 5d6a d63d 6679 14be
000001b0: 8aec 0fbe 4f2f 99be 91e8 d6bc 3f69 6fbd
000001c0: ac85 373e 7ef0 75bd 95a3 27be a222 eabd
000001d0: 0edf 15be e60b c4bb 8556 8d3d 6819 4a3e
000001e0: 09d7 a3be e9a6 5fbe af4b b33d 0129 ef3d
000001f0: 1316 433e 645d 00bd da83 7abc 756a 133e
00000200: a55b 55bc be8b 893c ebd3 e23d 7ecc 123e
00000210: e982 5dbe a3d3 d0bd 0507 d93d 9b6d 9f3c
00000220: abcf 663d a90c adbd e84d 11be 694a cf3c
00000230: 91f2 adbd a397 e13c 1084 a73c 55bb 013e
00000240: bfc1 58bc 8e36 493c 08cd 373e b261 b93d
00000250: c81a a33d 9c8f 763e 82fd 95bd 6015 b73c
00000260: 3b39 e0bc b5ec 7abe 0057 3b3e 9d82 a4bd
00000270: ae91 2cbd 0fbb 623d 24ed 633e 5ae3 5dbd
00000280: 4e08 683d 44d6 133d 232a f43c 81c9 403d
00000290: 6be5 013d 0f23 623e 737e afbd 8e42 4cbe
000002a0: 377b aabc 337f 593e d897 49bd 383c f1bd
000002b0: 74c3 483e 681e 8d3e ba3d b7bd 0c75 14be
000002c0: 3b99 6cbc c33d 22be 1b09 e8bd b81c e83d
000002d0: abee 013e e3d9 9a3d 0a3a b63d 1ca0 9bbd
000002e0: 9559 a03d 6116 ad3c f0d2 b9bd c714 9bbd
000002f0: aea2 15be ca6c 673b af1b 05be 2309 453e
00000300: ff92 88bd 0f21 013d b475 da3c be56 51bd
00000310: f1b6 a53d 4f36 053e 14b6 7abe 3572 c6bd
00000320: a849 b93d fc41 2ebe 3413 41be 2a70 153e
00000330: 5242 ccbc 6869 5c3e cda2 313d d119 8c3d
00000340: 2b13 07be 80dc 8d3d a7fb 953b 29e6 db3c
00000350: 3e70 e63d b0f1 0f3e a380 093d 76b3 fe3d
00000360: 037d 88be 5977 e63e 1d9c 6c3e 2e37 11be
00000370: fc09 1fbe 54ec b2bd 90ea 59bd 5372 123e
00000380: 0f11 b0bd 579c 823e b0a8 133d c343 dcbd
00000390: b656 eebd 8208 793d f716 25bd 8415 12be
000003a0: 16e5 b23d 2d60 18bc 854d ffbc 502a a3bc
000003b0: 422b 763e 60d8 c4bd 415c c0be db6e 3c3e
000003c0: 7dd2 6d3e c6ba fb3d b017 103e df1d d8bd
000003d0: 6ae2 883d f532 d3bd 74e1 8c3d 9ff7 1bbc
000003e0: aef4 cdba 3af8 83be 0a33 2abe 8be4 a23d
000003f0: b5ae 20be 378b 6c3d f425 b43d e889 24be
-0.078742094 -0.21991083 -0.15334925 0.029447634 -0.05439064 -0.0024670777 0.30214223 0.2019369
0.0065029855 0.05895458 -0.25005487 0.17087498 0.014593245 0.08032662 0.064061485 0.0056536174
0.15966159 0.22754313 0.05315392 -0.099350125 -0.20943913 0.022664845 -0.1213574 -0.09890479
-0.022595642 -0.061835594 -0.117381416 -0.14347115 -0.23587896 -0.08171681 -0.03167883 0.037144132
0.104390986 -0.16200843 -0.0695603 -0.15406235 0.053124025 -0.08954505 -0.07926852 0.03250026
-0.219998 -0.011491443 -0.072095096 -0.22116901 -0.101606525 -0.06082828 0.119966015 0.078674555
-0.113087766 -0.16087626 0.34308618 -0.04364261 0.24970374 -0.24221566 0.012693324 -0.2001519
0.21464016 -0.074606024 0.27990714 0.05228468 -0.047579564 0.08913988 0.13668393 -0.08948215
-0.002880983 0.024881085 0.051402792 -0.0092209745 0.03357738 -0.2685501 0.14252602 -0.05841435
0.21989606 0.026737502 -0.067277215 0.048135635 -0.08429828 0.09550777 -0.13823976 -0.23772168
0.050317466 0.03915991 0.10534385 -0.12243223 0.35007927 0.28839383 -0.026364636 0.21209313
-0.13342518 -0.07907498 0.031146266 0.028110348 0.051183153 -0.031124966 -0.099707074 -0.18636659
-0.118198454 0.16085206 -0.09268631 0.031209808 0.11025284 0.07429093 0.047188044 -0.007750458
-0.08856045 0.15496495 0.10469506 -0.14499435 -0.14055076 -0.29918906 -0.026233943 -0.05844998
0.17922086 -0.060043804 -0.16370995 -0.11432387 -0.1463587 -0.0059828637 0.06901268 0.19736254
-0.31999996 -0.21841015 0.0875467 0.11677743 0.1905139 -0.031339064 -0.015290225 0.14396079
-0.013022338 0.016790267 0.110755764 0.1433582 -0.2163197 -0.101966165 0.10597042 0.019461444
0.05635039 -0.0844968 -0.14189875 0.025304036 -0.084935315 0.027538126 0.020448714 0.12669118
-0.013229786 0.012281073 0.17949307 0.09051837 0.079640925 0.2407822 -0.073237434 0.02234906
-0.02737104 -0.24504359 0.18294907 -0.08032725 -0.04213112 0.055354174 0.2225843 -0.054171897
0.056648545 0.03609301 0.029805249 0.04706717 0.03171293 0.22083686 -0.0856904 -0.19947264
-0.020810707 0.21239929 -0.049217075 -0.11779064 0.1960581 0.2756226 -0.0894732 -0.14497775
-0.01444083 -0.15843873 -0.11329862 0.11333603 0.12688701 0.0756109 0.08897789 -0.07598898
0.078295864 0.021128835 -0.09073436 -0.07572322 -0.14612839 0.0035312646 -0.12998842 0.19241767
-0.06668662 0.031525668 0.026667453 -0.051108114 0.08091534 0.13008998 -0.2448352 -0.09689752
0.09047252 -0.17017359 -0.18854982 0.14593568 -0.024933968 0.21524584 0.04336815 0.068408616
-0.13190906 0.06926823 0.0045771184 0.026843147 0.11251877 0.1405704 0.033569943 0.12436573
-0.26657876 0.4501293 0.23106427 -0.14181206 -0.15531152 -0.08736482 -0.05320221 0.14301424
-0.08597004 0.25509903 0.036049545 -0.10755112 -0.116376325 0.06079913 -0.040305104 -0.1426602
0.08735101 -0.009300274 -0.031164894 -0.019917637 0.24039939 -0.09611583 -0.37570384 0.18401663
0.23224826 0.122914836 0.14071536 -0.105525725 0.0668381 -0.10312454 0.06878939 -0.009519487
-0.0015713179 -0.2577532 -0.16621032 0.07953747 -0.15691645 0.057749953 0.087963015 -0.16068232

conv_net.conv_net.0.bias f4 [16]
00000000: 546e e53c f6bf d93b d8e0 3a3a ed36 8ebb
00000010: 03e2 d7bc 7569 dd3b c7c8 193c d0de 463b
00000020: 5a7a 0dbc d074 3b3c c16e 4a3c f4f9 a0bc
00000030: d4fb b5bc 3c17 5e3c e76c 613c b300 243c
0.02800671 0.006645198 0.0007128841 -0.0043400438 -0.026352888 0.006756956 0.009386248 0.003034521
-0.008635128 0.0114414245 0.012355507 -0.019650437 -0.022214808 0.013555344 0.0137588745 0.010009932

conv_net.conv_net.2.weight f4 [32, 16, 5]
00000000: 3444 afbe b46d 52be 4c76 c92b 88a1 8cbb
00000010: 5824 1fbc c2da 82be a291 6cbd c40b 7f3d
00000020: ea73 e1bd b4ae 3dbe 98c7 a13d b95d ff3d
00000030: 7a6d a53c bd67 81bd f801 e1bd b4ab f03d
00000040: 09d9 f13b c862 033d c65c 323d 7c75 babd
00000050: ce32 9c3c 4797 e23d 0a54 023d c656 88bd
00000060: 06e7 253e 9dd8 23be c43b e63c 63e8 06be
00000070: c796 963d 1356 c5b9 c591 6b3d 3fc1 eabd
00000080: dac6 433d 7570 a83d 11dd 35be a40b 1bbc
00000090: c31d 213d b3c5 62bd 32c0 88bd 3517 fbbd
000000a0: a0a2 d235 f071 f6b4 bca3 6931 9db9 1532
000000b0: f7bb ae31 ec91 9d3d c6e1 793d e064 9cbd
000000c0: 604a e73d 19ae 0b3e 405b a6bc 5619 973d
000000d0: 60df aebc 29a6 60bc 723b c9bd 2c58 203e
000000e0: 00af 1f3e f542 1cbd e656 7e3c 7f7a 05be
000000f0: b4f6 b4bd 70c7 ca3d f0ce 4fbe 5da6 2cbe
00000100: 6caa e9bd b17b 03bd 7e3a 6f3e ca02 ae3c
00000110: 18ae e03c 7cdf 563c 9add 853c b026 8cbd
00000120: f31a 233d 1036 2dbe 69d7 04bc e56d 09be
00000130: c5fb 98bc be6c b33d 1b4c a63d 7079 01be
00000140: 0124 d83d ae85 1b3d 92fe 4e3d 1207 f03d
00000150: ef8a 843d 6e1d df3c 7eea 80bd 6f72 203d
00000160: a382 393d 1538 7a3d 54e9 bdbd ef2a 2f3d
00000170: feb6 113e 9cc4 a8bd 45ce 633d a7c5 c8bc
00000180: bd66 4dbd 7fe3 853d 3b5c 34bd 156c c93b
00000190: dd5d dcbd e62e 8c3d 55d2 cabd 4a68 d93d
000001a0: 858a b13d e6a2 fcbd fe60 8d3d 60b7 103e
000001b0: 57c9 8a3c e6c1 123e 7d68 4dbd 0d87 2f3d
000001c0: 0355 af3c b1d1 40be e750 11bb aa5a 68bd
000001d0: 33db 4abe dc40 84bd ea69 1abd f1e5 1e3d
000001e0: f684 68b2 ef56 72b8 817b a939 f229 333a
000001f0: d752 1f3b a71a 15bd f91b d6bc 09d4 223b
00000200: 7400 36bd ff30 47be 0666 b1bb 6ac3 f33d
00000210: 47ea ae3d 376c d53d e9f5 613d 0633 d33c
00000220: f823 9a3c 8cb0 f43d 8868 6abb f38e 003e
00000230: 4ef8 e5bd d2f3 9c3d b526 943d 1617 1c3d
00000240: 551d 0abe 0c89 b3bd 66c3 adba 3900 c0bd
00000250: 0922 bbbd bddc e9bd 2738 02be 394b 68bd
00000260: 0844 e8bc 08f9 13bd b75a 5ebe 734c eaba
00000270: e100 423d 8fad f43d e769 1b3c 992e 5b3d
00000280: 7c0c 61be 28df d83d d95f be3e 6e30 14be
00000290: 8b2e 4182 c68d 60be a3e7 163f cb04 e63e
000002a0: 711d 8f3e 236e 233c 169f de3a 77d2 ad3d
000002b0: 978d e03d 2b5a 733d 2786 4bbb 7198 0f3c
000002c0: c1c4 a93d 57d5 37bd ef14 473e fb3c 5b3c
000002d0: bc02 573e e2d8 a7bd 8e10 523d 32a2 8bbd
000002e0: e4d5 a8bd eb1d a13d 05fd 96bc 960b 83bd
000002f0: 53bb 85be 7a7d 00be 541b 093e f743 1ebd
00000300: 9d05 793d 7211 db3c dd2c d13d 6db3 f33d
00000310: f112 89bc e3e9 82be 250f 84be e9fb 463d
00000320: 000d 0a2f 95dc 9c37 b207 d837 a5c6 1daa
00000330: bf1f f428 8af9 86bd 6d37 9bbd 13b1 1b3d
00000340: 18d3 743e 3dc7 5abd 0f96 503e 5f37 21be
00000350: b5b9 88bd a126 d9bd 6f55 4fbe 6ec6 e03d
00000360: eb3c 4e3d 95cb 923d 79be 503d 7dd3 603d
00000370: 30b6 72be 68e9 80bd 8c7c ce3d 639d 543e
00000380: f0fc b63e ac1b d33e 5dfd cb3d 0589 5d3e
00000390: 6aad 013e ac8f a63d e937 82bd faf3 b63d
000003a0: 14c5 3fbd 453c cbbd 809b 843d c03d d7bd
000003b0: a3bd a43d 402c 33be 5a94 ffbd cfcb 7fbd
000003c0: cc0e d3bd 180b 473d d599 de3d a29d 393e
000003d0: f984 543d a1ec b9bc a61a 073e bfa6 8cbc
000003e0: 9913 84bd bb9b 8fbd ab37 cd3d 05c5 d43b
000003f0: bfaf b5bc 49d7 ddbc 950f 433e 6f20 3a3e
-0.34231722 -0.20549661 1.4314743e-12 -0.004291717 -0.009713255 -0.25557524 -0.057756074 0.06226708
-0.11008437 -0.18523675 0.078993976 0.12469048 0.020193804 -0.06318615 -0.10986704 0.117515
0.007380609 0.032076627 0.043545507 -0.091044396 0.019067194 0.1106401 0.031818427 -0.06657176
0.1620141 -0.160006 0.02810467 -0.13174586 0.07352977 -0.00037638898 0.057512064 -0.1146264
0.04779706 0.082245745 -0.17760111 -0.009463225 0.039335024 -0.055364322 -0.06677283 -0.12260286
1.5693549e-06 -4.590397e-07 3.3999035e-09 8.715145e-09 5.0854356e-09 0.07693848 0.06100633 -0.07636428
0.11293483 0.13640632 -0.020307183 0.07377879 -0.021346748 -0.013711491 -0.098257914 0.15658635
0.15594101 -0.038149793 0.015523648 -0.1303501 -0.088361174 0.09901321 -0.20293784 -0.16860338
-0.114094585 -0.032100383 0.23362157 0.021241564 0.027426764 0.013114806 0.01634102 -0.068433166
0.039820623 -0.16915154 -0.008107998 -0.13420828 -0.01867474 0.08760975 0.08119985 -0.12643981
0.10553742 0.037969284 0.050535746 0.117200986 0.06471812 0.027235713 -0.06294726 0.039171632
0.0452906 0.06108864 -0.092730194 0.042765554 0.14229962 -0.08240625 0.055616636 -0.02450831
-0.050146807 0.06537532 -0.04403327 0.0061469176 -0.107600905 0.06844883 -0.09903399 0.10615595
0.08668999 -0.12335758 0.069032654 0.14132452 0.01694171 0.14331779 -0.050148476 0.042853404
0.021402841 -0.18829991 -0.0022173466 -0.05672709 -0.1981018 -0.064576834 -0.037698664 0.038793508
-1.3534409e-08 -5.777826e-05 0.0003232621 0.00068345584 0.002431085 -0.03640237 -0.026136385 0.002484562
-0.044434026 -0.19452284 -0.0054137735 0.11902507 0.085407786 0.10421031 0.05516616 0.025781166
0.01881598 0.11947736 -0.0035767872 0.12554531 -0.11229001 0.076636925 0.07233945 0.038107954
-0.13487752 -0.08766374 -0.0013257086 -0.093750425 -0.09137351 -0.114190556 -0.12716733 -0.056712363
-0.028352752 -0.036126167 -0.21714292 -0.0017875567 0.04736412 0.11947166 0.009485698 0.053511236
-0.21977419 0.10589439 0.371825 -0.144716 -1.4192758e-37 -0.21929082 0.589472 0.44925532
0.2795215 0.009974989 0.0016984667 0.084874086 0.10964506 0.059412163 -0.0031055303 0.008764372
0.08289481 -0.04488119 0.1944158 0.013381238 0.20997137 -0.08195664 0.05128532 -0.06818046
-0.082439214 0.078670345 -0.018431196 -0.06398694 -0.2611948 -0.12547866 0.13389331 -0.038639035
0.06079637 0.026741717 0.10213635 0.11899457 -0.016732665 -0.25569066 -0.25792804 0.048580084
1.2555645e-10 1.8699366e-05 2.575279e-05 -1.401332e-13 2.710321e-14 -0.065905645 -0.07578931 0.038010668
0.23908651 -0.053412665 0.20369743 -0.15743779 -0.06676046 -0.10603071 -0.20247434 0.109753475
0.050351065 0.071677364 0.0509629 0.05488919 -0.23702312 -0.06294519 0.10082349 0.20763163
0.3573985 0.4123205 0.099604346 0.216343 0.12663808 0.08132872 -0.0635832 0.089332536
-0.046818808 -0.09923605 0.06474972 -0.10509825 0.08043983 -0.17497349 -0.12479468 -0.062450226
-0.10305557 0.048594564 0.10869185 0.18126538 0.051884625 -0.022695841 0.1319376 -0.017169354
-0.064490505 -0.07012125 0.100203834 0.006493213 -0.022178529 -0.027080195 0.19048913 0.18176435

conv_net.conv_net.2.bias f4 [32]
00000000: f470 2f3d de51 9c3c a0b4 f13b 2fab dfba
00000010: 6ac0 1fbc aac2 033c ee04 77ba 6e0d 8f3c
00000020: 06f1 d93b 936c 0dbd ed81 e2bb e643 4fbb
00000030: 8ef9 3ebd e5d7 1a3c 4c0c 8cbc d994 bd3a
00000040: fd1b 073c c272 52bc 3d37 953c 2978 09bd
00000050: 9714 043c 14a3 74bc 63e9 17bb 00a1 e7bc
00000060: 223f 8fbc bbed d9bc e61d 8a39 4009 a2bc
00000070: b6c9 d43c 8215 87bc 5189 763b 9440 e3bc
0.04283233 0.019082006 0.0073762685 -0.0017064566 -0.009750465 0.008042017 -0.0009423037 0.017462458
0.0066510467 -0.034527373 -0.006912461 -0.0031626164 -0.046624713 0.009450887 -0.017095707 0.0014463916
0.008246419 -0.012844743 0.018214816 -0.03356186 0.00806155 -0.014931459 -0.002317988 -0.028275013
-0.017486159 -0.026602617 0.00026343687 -0.019779801 0.02597509 -0.016489748 0.0037618468 -0.027740754

conv_net.conv_net.4.weight f4 [16, 32, 5]
00000000: a364 f73d 3a32 663e 6871 edbb a44e c83d
00000010: baab c93d 885a 113c a838 bf3d af1a 383d
00000020: 3620 383d fa7b dd3d 60e0 d93d 731f 533c
00000030: 290a 40bd 9d5f 8ebb 4b45 babd 1c1b b13d
00000040: 1848 b73d 5de8 8f3d 5891 b93d 29cb f0bd
00000050: 7570 87bd a372 0dbd ef28 363e 354d 183d
00000060: 6bff 733e b6c1 a13e dbe3 523e f573 863e
00000070: 28a5 623e 089c c13e 3a5e a5bd ed17 cc3d
00000080: 6e19 0cbd 4b2a 91bd e132 1d3c cfaf 4c3d
00000090: 80e7 a3bd 4d8e 6e3d b80d 133e 72ba 58bd
000000a0: a110 2d3d 1432 b03d 0710 013d cd91 233d
000000b0: 8c8c 313d 4352 4abc 25c4 75bb f7ad 9ebd
000000c0: 8dbe 09be 2b43 2fbe c6d9 813c d965 fcbb
000000d0: 9b0a 25be f78d 92bb 7353 65be fd5d 30bd
000000e0: 59f0 8c3d 046c c3bd c2cc 653e 5113 71bd
000000f0: fdf2 cd3c 3899 f43b 9962 fdbc ba22 bfbd
00000100: 9920 163e b8c5 253e 8774 693d ddc1 cfbb
00000110: 3ec3 023d a2eb b93c d4d7 dcbd 8284 b83c
00000120: 5ac7 7f3d fe80 fc3d 3e69 ba3e e14b 413e
00000130: 9100 f93c 3fce a83d e50f 42bc 4e6b 21bd
00000140: b26d 0d3e 5b71 fa3d 7a67 25bc 8000 8a3d
00000150: 31ea 443d 445e 4e3d 09d6 30bc 4909 18be
00000160: ca9f b13c b622 67be b036 843e 5b32 33bb
00000170: 2f7f ac3d c959 e83d eeab 213d 7d0b bdba
00000180: c79b 2139 c7a6 64b3 c704 942d 6652 c0b2
00000190: 3773 803d 501b 35bc 9e83 4a3e 5f5a ebbc
000001a0: 89a0 333d 2650 e23d 08bb 00bd ff8c 963d
000001b0: 17d2 883d 937b bfbd dd2f 2b3b 9ae4 113b
000001c0: 1d12 e83a 3635 af3a 08cd 8b3a bc67 4e3e
000001d0: 096a 393e e262 8e3e bcf6 9b3e 934b 453e
000001e0: 6a83 5bbc 11a1 5bbc 76fb 933d 215d cbbd
000001f0: 3624 633c 3241 953b 1f03 053c e265 263c
00000200: af20 9b3b 8c4d 933b e862 04be 7bd5 b73d
00000210: 534a e73a 85bd 0f3e 81d7 113e cea0 5fbb
00000220: 601a 23bd bdf4 8f3e bbad 473e 63f9 fe3d
00000230: 5965 38be 8915 5bbd 95bf 633d 1a9a b03d
00000240: d4ec 073e 9574 403e 043a 12be c382 f3bd
00000250: 4998 98bc 7b14 703c 1569 c2bd 304a 87ba
00000260: 91c2 823c 0f28 a83d e555 9f3e dbe0 6abe
00000270: ebde 16be be76 dc3b 83d8 54bc 59d6 72bd
00000280: 3dbd 383e d6d2 653d 54eb cc3d d8f8 31bd
00000290: 5b54 59bd 266f 89bd 758f 00be 666e 08bd
000002a0: d204 4b3d 96cd 383e c5d0 5d3d 2d26 ae3d
000002b0: 68b1 8d3d bdfb 3bbe 3550 28be 58a2 11be
000002c0: 146f 463c feca 033e f045 2c3e fe09 233e
000002d0: f018 72be 11df 44be 93cd 9fbe 35b0 aabe
000002e0: 385a 34be e4c1 3abe e790 393d 17b6 9e3e
000002f0: 9a57 7dbb 803d 03be 2267 8dbd cd4f d3bd
00000300: 807a d4bd f840 1a3d d32c 06be 5b08 dfbd
00000310: 7716 ed3c 12ec 303d 2f36 af3c a7f6 bcbb
00000320: 7efb aa3d edb6 a9bd a7d9 06be b9f4 d13d
00000330: bb04 6f3e c33f 30bc 4c98 fb3c 53fa 073d
00000340: db35 36be 1211 46be 81b7 2c3d a90b b5bd
00000350: 8520 27bd 17c7 903b 1fe5 f13d dfa4 5a3d
00000360: ff16 91bd 5267 9ebd 09b2 aabd 07a5 1f3e
00000370: 99d7 dc3d 4cc3 f43d 84df 293d 6665 693d
00000380: f2df 48bd 0676 bb3d 21aa 4a3c 9a30 4c3d
00000390: ad20 563d 738f ad3d 3fb5 303d 51f8 36bd
000003a0: cc66 4f3d 9d02 743d ab8c 8ebe edcb 8c3d
000003b0: fd3b a13d 3bd2 d2bc 525c 34be 1596 99be
000003c0: 743f 07bc b6aa eabd 1068 24bd 3655 a2bd
000003d0: 84e6 663d 9792 563e e057 053e a026 15be
000003e0: 1d63 c63c be76 50be 9d66 8dbd 8977 20bc
000003f0: 969d 643d dbb0 793d f09f 983d 7902 a9ba
0.12079742 0.22480097 -0.007246185 0.097806245 0.09847207 0.008871682 0.09336978 0.044947322
0.044952594 0.10814662 0.10638499 0.012885916 -0.04688469 -0.004344894 -0.09095248 0.08647749
0.08949298 0.07026742 0.09060925 -0.117575 -0.06613246 -0.034533154 0.17789052 0.037183005
0.23827903 0.31593102 0.20594732 0.26260343 0.22133315 0.37814355 -0.08074613 0.09965501
-0.03420394 -0.07088145 0.00959465 0.04997235 -0.080031395 0.058241177 0.14360702 -0.052912183
0.042252187 0.08603302 0.031509425 0.03993397 0.043346927 -0.012348714 -0.0037500944 -0.07748025
-0.13451596 -0.17115466 0.015850913 -0.007702571 -0.16117327 -0.00447249 -0.22395115 -0.043058384
0.0688178 -0.09542087 0.2244139 -0.058856312 0.02514028 0.007464554 -0.030930804 -0.093327954
0.14660873 0.16188705 0.056995895 -0.006340249 0.03192448 0.022695366 -0.107833534 0.022524122
0.062445976 0.12329291 0.36408418 0.18876602 0.030395778 0.08242463 -0.01184461 -0.039408974
0.13811377 0.12228652 -0.0100954715 0.067383766 0.048074905 0.050382867 -0.010793217 -0.14847292
0.021682639 -0.22571835 0.25822973 -0.0027343247 0.08422696 0.1134525 0.039470606 -0.001442298
0.00015412188 -5.323707e-08 1.6827774e-11 -2.2389212e-08 0.062719755 -0.011053875 0.1977677 -0.028729616
0.04385427 0.11050443 -0.031428367 0.073511116 0.066806965 -0.09349742 0.0026121058 0.0022261501
0.0017705593 0.0013367299 0.0010665962 0.20156759 0.18106855 0.27809817 0.3046168 0.1926711
-0.013398031 -0.0134051 0.07225697 -0.09929872 0.013863614 0.004554891 0.00811842 0.010156127
0.004734121 0.0044953283 -0.12928355 0.08976265 0.0017646052 0.1403714 0.14242364 -0.0034122947
-0.039820075 0.28116408 0.19499867 0.124499105 -0.18007411 -0.053487334 0.05560263 0.086231425
0.13273937 0.18794473 -0.14279944 -0.11890175 -0.018627303 0.01465332 -0.09492699 -0.0010321792
0.015961917 0.082107656 0.3112022 -0.22937338 -0.14733474 0.0067280224 -0.012991074 -0.05928645
0.18040939 0.056109272 0.10005823 -0.043450207 -0.053058963 -0.06710653 -0.12554725 -0.03330841
0.049565144 0.18047175 0.054154176 0.08503375 0.06918603 -0.1835775 -0.16436847 -0.14222085
0.012111444 0.12870404 0.16823554 0.1592178 -0.23642325 -0.19225718 -0.31211528 -0.3333756
-0.1761254 -0.18238026 0.045304205 0.309983 -0.003865695 -0.12816429 -0.06904437 -0.10317955
-0.103749275 0.037659615 -0.13103037 -0.108902656 0.028941376 0.043193884 0.021388141 -0.005766708
0.083487496 -0.082868434 -0.13168965 0.10251755 0.23341648 -0.0107573895 0.03071227 0.033197712
-0.17793982 -0.1934245 0.04216719 -0.088401146 -0.040802497 0.0044182646 0.118112795 0.05337989
-0.07084464 -0.077345505 -0.08334739 0.15590297 0.107833095 0.119513124 0.041472927 0.056981467
-0.049041696 0.091533706 0.012369663 0.049851038 0.052277256 0.084746264 0.0431416 -0.044670407
0.050635144 0.059572805 -0.27841696 0.06874833 0.0787277 -0.025735011 -0.17613342 -0.29997316
-0.0082548745 -0.11458342 -0.040138304 -0.07926409 0.05637218 0.20954357 0.13021803 -0.14565516
0.024217183 -0.20357797 -0.069043376 -0.009794124 0.05581435 0.06095968 0.07452381 -0.0012894414

conv_net.conv_net.4.bias f4 [16]
00000000: 2b81 543d beb7 67bd 87e8 47bc 466a a1bc
00000010: 0c63 83b8 a590 c43c b3f3 583d 2b07 ff3d
00000020: d0d2 5d3d 9837 63bc a537 edbb 26b9 8ebc
00000030: 8a71 11bb f75a 39bc 8abd 153d 45be 7bbd
0.051880997 -0.056571715 -0.012201435 -0.019703995 -6.265016e-05 0.023994753 0.052966785 0.12452539
0.054156125 -0.013868235 -0.0072392994 -0.01742227 -0.0022192919 -0.011313192 0.03655771 -0.061460752

conv_net.conv_net.6.weight f4 [8, 16, 5]
00000000: 1a0c 033e d89b 533e 1944 5a3e 2e57 403c
00000010: 34db 3e3d 1fac 133d c5ec f6bc 9291 e83d
00000020: 3e91 28be c55a d13d 816d 71be 7eb2 e2bd
00000030: 84e0 46bd 48e9 da3d 8876 65bd a6e3 103c
00000040: b99f a13e b0ed a43d d1a6 12be ba18 0cbe
00000050: 7d94 03be bb2d 8fbe cfea 5f3d 9d72 d0bd
00000060: ad3c cbbd 7c0f b73d b3c1 c8bd bfd7 2dbe
00000070: ab7d 383d 6d46 0b3e 50c1 aa3d 16f8 af3e
00000080: b4a0 58bd b2fc b03d 8acb 27bd 1ea2 13bc
00000090: a0f6 823d fb6a 40be 482e 0d3e d193 c3bd
000000a0: 135e f53c 788d 193d 73b9 163d 31b0 0b3d
000000b0: 56d4 723c 5b0b 4e35 cc76 dc35 d397 ff35
000000c0: 8c6a 1736 a195 1b36 2d2c 16bd afaf b2bd
000000d0: 102a af3d dcae 123d 3266 c7bd 943d 323c
000000e0: 02c1 afbd 4d8a 4b3d 9215 fb3d 6d3f 1dbc
000000f0: e9a3 cfbc 2748 60bd 207d 29bd cd90 53bd
00000100: a12e df3b 272f 43bd 7bba 73bd 53aa 783d
00000110: d72d 6d3e 2bb5 b83d c386 513d 65fb 103d
00000120: ebbb 853d 3828 b43d 5c12 993d 87c9 2f3e
00000130: d1c1 16bd 3f8d d2bd 9724 fabc ee22 14be
00000140: 375b 98bc 2671 a63c cc02 123c 9d8e a43a
00000150: b4bc b4bb 088c 98a0 7449 81b5 5483 f3b9
00000160: e3a5 aaba 15a2 70ba f430 c93b 3175 e2bb
00000170: 225f 843b cf51 faba fc45 8bba e5cc 18b9
00000180: b2a2 27b8 2959 17b6 c56c 7ab6 144e 01b8
00000190: 1e69 31bc 33b0 5ebb a32c 063c b00d 0dbc
000001a0: 0d9c bfba a534 ee39 e510 09ba 9965 aeba
000001b0: 9115 7d3a 2244 8eba d48c 9dbb be37 faba
000001c0: 911f d0bb 3224 f0ba f566 31bb 1d62 8cba
000001d0: b4ce f8b7 258a 69b3 e5a0 9fae b6cc 16aa
000001e0: 3735 8cb9 dd58 37b9 a0ee 65b9 8691 e1b9
000001f0: 03ba 55ba 9288 6b82 8e30 0c01 8e9e 8181
00000200: ed4f f481 a41a 2782 9c7c 98b4 77a4 47ba
00000210: 754d 0ebc a222 e1ba 1287 01bb 60bd 3cbb
00000220: 118c 85ba 31d3 84bb b3ad 76ba 162c b9ba
00000230: 1578 b1ba c53a f3ba a2bc 84ba 52f0 e1bb
00000240: a64a 7bbb 3179 3102 334c 8202 2d5a 00b4
00000250: bd79 d3b8 c771 88b9 2112 13bc 7be8 293d
00000260: f786 e6bc 082e 8abc 94b5 c4ba 64b9 68bb
00000270: b025 c3ba ad2d 04ba 71f0 0cb9 6183 84b8
00000280: 3058 f23d db4c 643e 2263 033e e546 fcbb
00000290: b933 423e 40ca 16be da48 2fbd 10ba 10be
000002a0: 9adc 713e 4b36 fdbd 8f3b 953c 08b4 ac3c
000002b0: e49d e4bd 01d0 bfbd 933a f03d 7dd9 57be
000002c0: 3918 52be fac2 a2bd f493 5a3c d730 383d
000002d0: b131 1d3e df38 913d 1c4d 8fbd be15 9f3d
000002e0: c65d cf38 2462 d13d 8f8f 4d3e fc27 4d3d
000002f0: d4df 31be 953b c3bd 02d1 553e 2638 19bd
00000300: 7008 e53d e9e9 9fbc adde 9a3d 4ceb 993d
00000310: 33bf 2a3d 3269 003e ad74 863c 83f0 23be
00000320: 8e33 9c3d 22b7 213d 9a87 103d 98fb 063d
00000330: 6fdf b4bb 3e49 da39 01e8 a4b8 8c24 4fba
00000340: 1033 98ba 5e80 a3ba dbfe a4be a679 82bd
00000350: 76c0 1d3c ce64 acbe 43c3 303d 252b 14be
00000360: ae35 223c cb16 efbd 35c0 56be 9b4e d5bc
00000370: 929b d13d b47b 7c3e 9459 44be 678d d0bd
00000380: ed98 05be 2701 5fbe bd37 1bbd 0cb5 78bd
00000390: 0f93 50bd 9504 843d 84b0 8c3e 5cbc 163e
000003a0: b480 ddbd 689d 083e 6cdd 65bd a446 d4bd
000003b0: a842 cdbd 354e b83d 9a14 ac3c e257 0fbe
000003c0: 0465 d0bd d353 0d3d fc73 a4bc 7424 7c3c
000003d0: 071e 293d d4a0 893d 5e30 99bc 02d7 37bd
000003e0: 505e 6a3d 1ce8 123e 4b54 1ebe c05b 113d
000003f0: c6ae 2a3d 68fe 863d 2a46 833e e590 873e
0.12797585 0.20664918 0.2131504 0.011739535 0.046595767 0.03605282 -0.030142197 0.1135589
-0.16461655 0.10222391 -0.23576929 -0.11069201 -0.04855396 0.10689026 -0.056021243 0.008843338
0.3156717 0.08053148 -0.14321448 -0.13681307 -0.12849613 -0.27964577 0.05466729 -0.10178111
-0.09923682 0.089385 -0.0980257 -0.16976832 0.04504172 0.13601084 0.08337653 0.34368962
-0.052887633 0.08641948 -0.040965594 -0.00901082 0.06394696 -0.1879081 0.13787186 -0.09549678
0.029952085 0.03748843 0.036797952 0.034103576 0.014821133 7.6757505e-07 1.6425852e-06 1.9043167e-06
2.2562772e-06 2.3183895e-06 -0.036663223 -0.08724915 0.08552945 0.03581129 -0.09736289 0.010878939
-0.08581735 0.04969244 0.122599736 -0.009597641 -0.025346713 -0.05475631 -0.041379094 -0.051651765
0.0068109785 -0.04765239 -0.059504014 0.06070931 0.23162018 0.0901893 0.05115391 0.035396
0.06529983 0.087967336 0.07474205 0.1716672 -0.03680593 -0.10280847 -0.030535026 -0.1446645
-0.018598182 0.020317625 0.0089118 0.0012554709 -0.005515659 -2.5842467e-19 -9.632627e-07 -0.0004644642
-0.0013019409 -0.00091794255 0.006139869 -0.006910943 0.004039661 -0.0019097867 -0.0010625715 -0.00014572179
-3.9967425e-05 -2.2552651e-06 -3.7316215e-06 -3.0828713e-05 -0.010828285 -0.0033979535 0.008189353 -0.00860922
-0.001461865 0.0004543412 -0.0005228653 -0.0013305425 0.0009654398 -0.0010854045 -0.004808048 -0.0019090099
-0.0063514193 -0.0018321334 -0.0027069424 -0.0010710392 -2.9660157e-05 -5.437518e-08 -7.2590635e-11 -1.33937e-13
-0.0002674253 -0.00017485344 -0.00021928037 -0.00043023768 -0.0008153023 -1.7304267e-37 2.5748775e-38 -4.761463e-38
-8.974613e-38 -1.2276868e-37 -2.8402872e-07 -0.0007615755 -0.008685459 -0.0017176459 -0.0019764346 -0.00287994
-0.0010188838 -0.0040534963 -0.00094100385 -0.0014127519 -0.0013539816 -0.0018556943 -0.0010127018 -0.0068951035
-0.0038344054 1.3038686e-37 1.914552e-37 -1.1953735e-07 -0.000100839396 -0.00026024712 -0.00897649 0.041481476
-0.028140528 -0.016867653 -0.0015007728 -0.0035510892 -0.0014888551 -0.00050422066 -0.00013441012 -6.318722e-05
0.11833227 0.22294943 0.12830785 -0.007698881 0.18965043 -0.1472559 -0.042794086 -0.14133477
0.23619309 -0.12363871 0.018216876 0.02108194 -0.11162928 -0.093658455 0.11729922 -0.21079059
-0.20517053 -0.07947345 0.013340939 0.044968452 0.15350987 0.070909254 -0.06997129 0.07767819
9.887996e-05 0.10223797 0.20074295 0.05008696 -0.1737054 -0.09532849 0.20880511 -0.037407063
0.1118325 -0.019520717 0.07562003 0.075155824 0.041686248 0.12540129 0.016413057 -0.16009717
0.07627021 0.03948129 0.03528557 0.032954782 -0.0055197994 0.0004163477 -7.8633435e-05 -0.0007901869
-0.0011611897 -0.001247417 -0.3222569 -0.06370859 0.009628406 -0.33670658 0.043154966 -0.14469583
0.009900494 -0.11674269 -0.20971759 -0.026038459 0.10234751 0.24656564 -0.19174796 -0.1018322
-0.13046618 -0.21777783 -0.037894953 -0.060719535 -0.050921496 0.064461865 0.2747842 0.14720291
-0.10815564 0.13341296 -0.056119367 -0.10365036 -0.10022479 0.08999292 0.021005917 -0.13998368
-0.10175517 0.03450377 -0.020074837 0.0153895505 0.041288402 0.06720129 -0.018699821 -0.04488278
0.05721885 0.14346355 -0.15461843 0.03548789 0.041670583 0.06591493 0.25639468 0.26477733

conv_net.conv_net.6.bias f4 [8]
00000000: 9e7a 0c3d ca34 adbc 0d83 2f3d e81c abbd
00000010: 1550 c33c fd42 893d 7b6c a1bc f18f 393d
0.034296624 -0.021143336 0.04284959 -0.08355123 0.023841897 0.0670223 -0.019705048 0.04530329

l0.sigma f4 [2]
00000000: ad00 64c0 dbd2 63c0
-3.5625412 -3.5597446

l0.g.0.weight f4 [8, 2]
00000000: f24d f13c fa20 213f 51e5 10bf 115e 7dbe
00000010: 5460 2a3f 1a31 45bf 5a43 22bf 5033 2cbf
00000020: 6f20 4dbf c51a 1cbd debf 2fbf 6b95 933e
00000030: ea20 903d 691c c23e 32c1 c43e 4565 1e3f
0.029456113 0.62940943 -0.5659991 -0.24742915 0.66553235 -0.7702805 -0.6338402 -0.67265797
-0.80127615 -0.038111467 -0.6865214 0.28824934 0.07037528 0.379123 0.38428646 0.61873275

l0.g.0.bias f4 [8]
00000000: 4dab 55bc a576 0ebd cc2b 10bd b295 88ba
00000010: 88ec d8bd 7d08 7eba 955c 31bd 3155 83bd
-0.01304133 -0.034781117 -0.035198018 -0.0010420589 -0.1059199 -0.0009690596 -0.043301184 -0.06412733

mean_layer.sigma f4 [8]
00000000: d257 5cc0 b20d ffba e21e 5fc0 4720 52c0
00000010: dd89 5ac0 ff0c 56c0 02eb 61c0 dc11 50c0
-3.4428601 -0.0019459038 -3.48626 -3.28322 -3.4146645 -3.3445432 -3.5299687 -3.25109

mean_layer.g.0.weight f4 [1, 8]
00000000: 1560 5bbe c096 e73a 6607 f83e 3340 c23e
00000010: cfe0 9bbe 8b6e 893e 7e39 bd3e 083e 39be
-0.21423371 0.0017668828 0.48443145 0.37939605 -0.30444953 0.2684215 0.36957926 -0.1809007

sigma_layer.sigma f4 [8]
00000000: a1fa 58c0 7e03 8f01 f6c1 5cc0 cb15 5fc0
00000010: f7c7 60c0 385a 19c0 d88b 63c0 5b75 50c0
-3.3902972 5.2534915e-38 -3.4493384 -3.4857051 -3.512205 -2.3961315 -3.5554104 -3.2571628

sigma_layer.g.0.weight f4 [1, 8]
00000000: 281f 91be f45d e3b9 e7fe 57bf eb55 e4be
00000010: e30d 74be 7891 0c3f 87ed 823f f7c5 80be
-0.28344083 -0.00043366814 -0.84373325 -0.445968 -0.23833422 0.5490947 1.0228738 -0.25151035

exp_avg f4 [16, 8, 5]
00000000: 9e11 6dbf 14c7 6abf 2654 6bbf bd73 6dbf
00000010: 36a0 70bf e40a 07c0 1645 06c0 d982 04c0
00000020: 9bbb 01c0 eed2 fdbf eb7f 72c0 910d 73c0
00000030: 42e0 73c0 b49f 74c0 e4d5 74c0 d2d0 3cc0
00000040: 82c9 3cc0 13df 3ac0 6d0b 37c0 64cb 32c0
00000050: e842 b4bf 0ffb b0bf 692a adbf b4dc a8bf
00000060: ea8a a5bf a79a 81bf 2f4e 7dbf d1dc 77bf
00000070: 4f49 72bf b9d0 6ebf d7d7 acbf e5cd abbf
00000080: 8152 acbf e9ba adbf 0293 afbf 73f7 94bf
00000090: a5be 93bf 4b12 96bf 5957 9bbf b475 a1bf
000000a0: 8d76 5ec0 caf4 5bc0 824e 5ac0 e6b5 59c0
000000b0: aabe 59c0 8e62 97c0 237a 9ec0 80da a7c0
000000c0: c875 b0c0 ffc4 b5c0 f09a 1bc1 4d82 19c1
000000d0: 3154 16c1 9a13 13c1 1a8e 10c1 5993 c6c0
000000e0: fa16 cfc0 74ad d9c0 d5fc e2c0 ca4d e8c0
000000f0: cbca 4ac0 3e73 5bc0 336e 72c0 9c13 84c0
00000100: e93e 8bc0 2214 2dc0 b2b4 39c0 e1a6 4bc0
00000110: 9d00 5dc0 dac1 68c0 25c5 8bc0 b857 8ac0
00000120: 73fb 88c0 01fe 87c0 c265 87c0 0610 8fc0
00000130: 38a7 89c0 2e47 83c0 c68d 7bc0 35c6 74c0
00000140: 7ae5 963e a04d b13e 89a6 b53e d40f b03e
00000150: bb0a ab3e c48c 4f3d 765b b2bd 9f2d 18be
00000160: 48fe 0fbe e867 debd e688 ee3d e76b 423e
00000170: e1f2 843e c2b6 963e fe94 993e 4dcc 42bc
00000180: f3d9 38be bd3f 7bbe b90d 6abe 1789 43be
00000190: 6c70 ae3d 9181 7fbd 9e2c 08be 990f 05be
000001a0: ac24 c8bd bdcd 2f3e f0d0 5d3d 02ea 8cbc
000001b0: a851 03bd 6974 9bbc 79ca 883e aba5 a03e
000001c0: f4cf a73e 3651 a43e 737b 9e3e 3421 ad3e
000001d0: 041a f03e f370 053f 29b1 023f 9c49 f63e
000001e0: 0fcc 6f40 84a9 6c40 f825 6d40 701e 7140
000001f0: ebc5 7540 6c55 c540 d0f9 a640 ead6 9140
00000200: 6e6f 8940 50d3 8c40 389d 4641 e2f3 5441
00000210: b1d2 5e41 72c3 6241 2aed 6141 b173 0341
00000220: 7969 e740 39fb d040 8484 c740 54b1 ca40
00000230: c573 8740 2cd3 4540 9275 1340 9ff9 fe3f
00000240: 4781 0640 e93e 5640 f801 1540 9737 d13f
00000250: 312d af3f 3ea3 bb3f 7dec a140 522e a440
00000260: d69a a640 a8bc a840 d1d0 a940 ad0b 9f40
00000270: dd2d b240 ec8a c040 8491 c740 6ee7 c640
00000280: c665 86be 7ed2 73be b8cd 7ebe 0147 84be
00000290: d36b 70be 6dc4 a8bf 2dd2 8bbf 5000 4dbf
000002a0: c2ef 08bf a71a c8be dbcf 6bbf 2173 95bf
000002b0: 3ca0 b1bf 7800 c9bf ca44 dcbf 5dba cfbf
000002c0: b2c8 b2bf 3a3a 89bf 1f75 46bf 891c 23bf
000002d0: d62d 99bf 4ed3 69bf 8b57 16bf 0151 98be
000002e0: 2322 00be ce5b 72bf 5aaf 30bf 3b14 d5be
000002f0: e4b6 31be 1a8b 31bc 2276 c4be d083 cabe
00000300: 025b debe 56db efbe ce15 f1be b41e 893c
00000310: c056 f0bd ab62 a6be 7e8e 03bf 94ac 18bf
00000320: 96bd 80c0 5b53 81c0 f419 81c0 fea7 7fc0
00000330: 56d3 7cc0 f23f 24c0 57f0 1cc0 d062 23c0
00000340: b371 36c0 5ddb 4fc0 6382 c7c0 443f ccc0
00000350: 3d1a ccc0 81e4 c5c0 3d19 bbc0 152c 2ec0
00000360: 504f 26c0 02c2 2ec0 4e6f 45c0 f7f7 61c0
00000370: 77a6 efbf dd9c dbbf a438 e5bf 290c 06c0
00000380: 2a82 22c0 b982 0dc0 80a7 03c0 f187 06c0
00000390: 6471 16c0 d345 2fc0 344d 87c0 2cec 87c0
000003a0: 3f66 87c0 307a 85c0 911d 83c0 72c9 a1c0
000003b0: 29a7 a4c0 0629 a2c0 bc61 9ac0 896d 90c0
000003c0: 16fd 2241 db10 2341 0258 2341 ccae 2341
000003d0: 98d1 2341 61d0 8e40 5e9f 8d40 240a 8e40
000003e0: 77e9 8f40 316a 9540 edda e640 c88e e840
000003f0: 347e e840 e9fb e540 bae3 df40 98c7 4b40
-0.92605007 -0.9171002 -0.91925275 -0.9275473 -0.9399446 -2.1100397 -2.0979667 -2.0704863
-2.0270755 -1.9829996 -3.7890575 -3.797703 -3.8105626 -3.8222475 -3.8255548 -2.9502454
-2.949799 -2.9198654 -2.8600724 -2.793664 -1.4082918 -1.3826617 -1.3528568 -1.3192353
-1.2933018 -1.0125321 -0.98947424 -0.96821314 -0.9464311 -0.93287235 -1.3503369 -1.3422209
-1.3462678 -1.3572665 -1.3716738 -1.1638016 -1.1542555 -1.1724333 -1.2136031 -1.2614045
-3.4759858 -3.4368157 -3.4110417 -3.4017272 -3.4022622 -4.7307806 -4.9524093 -5.2454224
-5.5143776 -5.6802974 -9.725327 -9.594312 -9.395555 -9.192286 -9.034693 -6.205487
-6.4715548 -6.8024235 -7.0933633 -7.2594957 -3.1686275 -3.4289088 -3.787976 -4.1273937
-4.3514295 -2.7043538 -2.9016538 -3.1820605 -3.4531624 -3.6368318 -4.3678155 -4.323208
-4.2806945 -4.2497563 -4.2311716 -4.470706 -4.3016624 -4.102439 -3.9305282 -3.8245976
0.29471952 0.34629536 0.3547862 0.34387076 0.33406624 0.050671354 -0.08708851 -0.14861153
-0.14061844 -0.10859662 0.11647205 0.18986474 0.25966552 0.29436308 0.29996485 -0.011889529
-0.18051891 -0.24536033 -0.22856797 -0.19095264 0.085175365 -0.062379424 -0.1329827 -0.12994231
-0.097726196 0.17168327 0.054154336 -0.017201427 -0.032060295 -0.018976407 0.26716974 0.31376395
0.32775843 0.3209321 0.3095356 0.33814394 0.46894848 0.5212547 0.51051575 0.48103034
3.7468297 3.6978464 3.7054424 3.7674828 3.840205 6.1666775 5.2179947 4.5574846
4.2948523 4.400795 12.4133835 13.309542 13.926438 14.172716 14.120401 8.215745
7.231625 6.530667 6.234926 6.3341465 4.232882 3.091014 2.304051 1.9919928
2.1016405 3.3475897 2.3282452 1.634509 1.3685666 1.4659193 5.060118 5.1306543
5.206401 5.2730293 5.3067403 4.9701753 5.5680985 6.016958 6.236513 6.2157507
-0.26249522 -0.23810765 -0.24883163 -0.25835422 -0.23478632 -1.3184944 -1.0923516 -0.800786
-0.5349084 -0.39082834 -0.9211404 -1.167576 -1.3877025 -1.5703268 -1.7208493 -1.6228749
-1.3967497 -1.0720894 -0.7752246 -0.63715416 -1.1967113 -0.9133805 -0.5872733 -0.297493
-0.12513022 -0.9467133 -0.69017565 -0.41616997 -0.17354923 -0.010836387 -0.38371378 -0.3955369
-0.43428808 -0.46847028 -0.47086948 0.016738273 -0.11735296 -0.32497153 -0.513893 -0.59638333
-4.023143 -4.041425 -4.034418 -3.9946284 -3.950399 -2.566403 -2.4521692 -2.552906
-2.8506896 -3.2477639 -6.2346663 -6.382723 -6.378203 -6.1841435 -5.846831 -2.7214406
-2.5985909 -2.7305913 -3.0849185 -3.5307596 -1.8722676 -1.7157246 -1.790791 -2.0944922
-2.5391946 -2.2111037 -2.0570984 -2.1020472 -2.3506708 -2.7386367 -4.228174 -4.2475796
-4.231231 -4.1711655 -4.097359 -5.0558405 -5.1454053 -5.0675077 -4.8244305 -4.513371
10.186789 10.191615 10.208986 10.230175 10.23867 4.462937 4.425704 4.438738
4.497249 4.669213 7.2142243 7.2674294 7.2654057 7.1870008 6.9965487 3.1840572

exp_avg_sq f4 [16, 8, 5]
00000000: 5fc0 a541 e677 a241 a3de a141 f077 a341
00000010: be46 a641 8414 ab42 ee85 a542 321c 9e42
00000020: ed41 9742 2eed 9342 fb87 8e43 72fc 9043
00000030: 2d1a 9343 2488 9443 dec2 9443 ca83 2343
00000040: c1c9 2043 8795 1b43 7ae1 1543 4b57 1243
00000050: 2c52 1e42 de8c 1342 20cc 0742 421e fd41
00000060: 56af f641 8d3e ae41 37b3 a041 113c 9341
00000070: 186f 8941 f8c4 8641 83a0 2342 95f0 2242
00000080: 0ea8 2342 c163 2542 c83a 2742 77ae 0142
00000090: 99a3 0342 f900 0942 920a 1042 cb5a 1542
000000a0: 6d25 e742 035d e342 d2e5 e042 e0d6 df42
000000b0: 9822 e042 acfb 5043 22be 5143 98ef 5543
000000c0: 94db 5a43 c10b 5f43 bc7e 4c44 5fe3 4c44
000000d0: 00c0 4b44 3b11 4a44 0041 4844 fad9 af43
000000e0: 7fa1 b143 b557 b543 16f4 b843 fc58 bb43
000000f0: ac62 cb42 6efc ca42 e364 d142 f520 da42
00000100: f1c6 e242 ed17 9542 9f69 9442 84a8 9842
00000110: 5d85 9e42 4b56 a442 6267 3043 c3d9 2e43
00000120: ee89 2d43 5eb1 2c43 8b67 2c43 f77f 3543
00000130: 1859 3243 b25e 2e43 db31 2b43 4185 2943
00000140: 7872 2242 c26a 2442 437c 2642 330c 2842
00000150: 65ff 2842 9ddd e541 dd50 c741 ccce b041
00000160: f040 a641 fb5b a841 0c8a b742 8a0b c742
00000170: 3156 d542 6685 de42 bfd9 dd42 6980 1142
00000180: 27b4 f941 f552 d941 f8b1 c841 29b1 c941
00000190: 1811 9541 7ae0 7441 b2a8 5541 d63d 4c41
000001a0: 0014 5441 d932 a841 2ddc 9341 1835 8a41
000001b0: d40e 8a41 ffc2 8f41 94ea 2a42 07bf 2d42
000001c0: 166c 3042 8520 3242 df91 3242 a1db 5242
000001d0: 031b 5f42 4b98 6a42 3878 7142 225c 7142
000001e0: 1713 6443 88d5 6043 1655 5c43 b4a3 5643
000001f0: 8056 5043 b751 3843 0603 0d43 8812 f642
00000200: 6961 0043 c822 1443 dae8 2d44 f991 4344
00000210: 5c52 5544 718a 5f44 7955 6144 16f4 8d43
00000220: df3b 5e43 4cd4 3d43 9577 3b43 dd88 4e43
00000230: c800 d642 97eb 8b42 d568 7f42 f94a a242
00000240: 9680 d942 e247 c342 05cb 9342 5f6c 9c42
00000250: edcc cc42 ce1c 0543 d806 7c43 a7f0 7c43
00000260: 9136 7b43 e0a8 7643 2337 7043 09df aa43
00000270: 4add b143 749f b343 aa69 ae43 047c a343
00000280: 0e4b ee41 ab73 ed41 5608 ed41 8b6f ec41
00000290: fab5 ea41 34b2 8a41 bc8a 7141 4d7f 5941
000002a0: 7e50 5541 9d45 6741 190a 5942 804b 6842
000002b0: 0e48 7242 9587 7242 b14c 6842 ca6a a341
000002c0: e3a1 9141 62a0 8741 c86d 8841 75e7 9341
000002d0: 9cf6 4f41 a209 2841 c547 0c41 442a 0441
000002e0: d762 1241 3bb3 8041 d9ca 5341 1704 3141
000002f0: da7f 2341 6dc7 2f41 0a63 e841 9402 eb41
00000300: 024c ed41 2af0 ed41 cb07 ec41 ceea 1542
00000310: 4862 2042 dc4a 2942 08c0 2c42 ee7f 2842
00000320: 1f44 dc44 0cb0 db44 d3de da44 b5e0 d944
00000330: 23c6 d844 92ac 0b44 29dc 0444 4953 0344
00000340: 7121 0744 a2a4 0f44 7b3c 0645 0d7c 0b45
00000350: 35ae 0d45 6049 0c45 0693 0745 7442 eb43
00000360: 61d5 e043 b113 e043 b38b e843 17d3 f843
00000370: c366 c543 1e88 b543 28fb b043 c312 b843
00000380: 89ed c943 5f29 1b44 c567 1044 afab 0c44
00000390: 0d79 1044 433d 1b44 fbb0 cf44 5a06 d044
000003a0: 9bbb cf44 30d0 ce44 845e cd44 5d89 1245
000003b0: 178c 1445 bbb1 1445 9df8 1245 ceab 0f45
000003c0: cef7 5545 3c81 5645 5e79 5645 2eb6 5545
000003d0: 0a2a 5445 237e 2244 b5d4 1d44 3888 1e44
000003e0: 4ab6 2444 cca8 2f44 067f 0645 01a3 0845
000003f0: e30d 0845 900f 0545 554f 0045 b29f af43
20.718931 20.308544 20.23371 20.433563 20.784542 85.54007 82.76158 79.05507
75.62876 73.96324 285.06235 289.97223 294.2045 297.0636 297.5224 163.5148
160.7881 155.58409 149.88077 146.34099 39.580246 36.887566 33.94934 31.639774
30.835613 21.780542 20.087507 18.40433 17.179245 16.846176 40.90675 40.734943
40.914116 41.347416 41.807404 32.420376 32.909763 34.25095 36.010323 37.338665
115.5731 113.68166 112.44887 111.91968 112.067566 208.9831 209.7427 213.93591
218.85773 223.04591 817.9802 819.5527 815.0 808.2692 801.0156 351.70294
355.2617 362.6852 369.90692 374.6952 101.69272 101.49303 104.697044 109.06437
113.38856 74.54673 74.20629 76.32913 79.260475 82.16854 176.40384 174.85063
173.53879 172.69284 172.40446 181.49986 178.34802 174.3699 171.19475 169.52052
40.611786 41.104256 41.62135 42.011913 42.24941 28.73321 24.914484 22.100975
20.781708 21.044912 91.76962 99.52254 106.66834 111.260544 110.925285 36.3754
31.212965 27.165506 25.086899 25.211504 18.633347 15.304804 13.353685 12.765097
13.254883 21.024828 18.482508 17.275925 17.25724 17.970213 42.72908 43.43655
44.105553 44.531757 44.642452 52.71448 55.77638 58.648724 60.3674 60.339973
228.07457 224.8341 220.33237 214.63947 208.33789 184.3192 141.01181 123.036194
128.38051 148.13586 695.6383 782.2808 853.28687 894.16315 901.3355 283.90692
222.23387 189.82928 187.46712 206.53462 107.001526 69.96014 63.852375 81.14643
108.751144 97.640396 73.89652 78.21166 102.400246 133.11252 252.02673 252.94005
251.21315 246.65967 240.21538 341.74246 355.72882 359.24573 348.8255 326.96887
29.786648 29.681479 29.62907 29.554464 29.338856 17.337013 15.096371 13.593579
13.332151 14.454495 54.25986 58.07373 60.570366 60.632404 58.074894 20.427143
18.204046 16.953312 17.053604 18.488016 12.997707 10.502352 8.767522 8.260319
9.149131 16.087515 13.237023 11.0634985 10.218714 10.986188 29.048359 29.376259
29.662113 29.742268 29.503805 37.4793 40.095978 42.323105 43.18753 42.12493
1762.1288 1757.5015 1750.9633 1743.0221 1734.1918 558.6964 531.44 525.30133
540.5225 574.5724 2147.78 2231.7532 2266.888 2244.586 2169.189 470.51917
449.66702 448.15384 465.0914 497.64914 394.80283 363.06342 353.96216 368.14658
403.85574 620.6464 577.6214 562.68256 577.8914 620.9572 1661.5306 1664.1985
1661.8627 1654.5059 1642.9536 2344.5852 2376.7556 2379.1082 2351.5383 2298.7378
3423.4878 3432.0771 3431.5854 3419.3862 3394.6274 649.9709 631.32355 634.1284
658.84827 702.63745 2151.939 2186.1877 2176.868 2128.9727 2052.9583 351.24762

exp_avg f4 [16]
00000000: 12d2 88c0 c674 37c1 08e6 bb3e e633 6241
00000010: 2547 bdbf e1da 08c1 7516 7841 0ef7 1240
00000020: e245 bab3 df64 0a42 886f 15c1 7bb5 bf40
00000030: 4f42 0741 6a53 c140 5461 8ac0 f9df d0c1
-4.2756433 -11.466009 0.36698937 14.1376705 -1.4787337 -8.553437 15.505483 2.296329
-8.6740116e-08 34.598507 -9.339729 5.9909034 8.453689 6.0414324 -4.324381 -26.109362

exp_avg_sq f4 [16]
00000000: 0908 b943 ab35 9244 4e5c 3943 5add 9244
00000010: 7246 e542 5d82 af45 20db fe45 880a 1b43
00000020: 462c 442e d142 0947 9649 4945 d31e 1845
00000030: 8774 4344 b4ee bb43 9357 b443 93f2 9e46
370.06277 1169.6771 185.36057 1174.9172 114.63759 5616.2954 8155.3906 155.04114
4.4604563e-11 35138.816 3220.599 2433.9265 781.82074 375.86487 360.68417 20345.287

exp_avg f4 [32, 16, 5]
00000000: 25bc bc38 4218 0ab6 6121 9623 425a 18b4
00000010: 34b5 c7b3 da18 dd3c 4e7e ad3c 913f 153d
00000020: ff7b 763d 6774 9b3d 697b 6f3f cdf9 463f
00000030: 839a 223f 02a5 023f 6ee9 cc3e e9f3 1c3f
00000040: b27e 173f 3f25 1d3f bd21 2b3f f7d8 3f3f
00000050: 1455 f73e 0c38 073f 47a7 023f 01e4 e83e
00000060: cf82 cb3e ae1d 973f 13ed 8f3f 40a7 8c3f
00000070: 0c64 8c3f abe4 8c3f d054 0e3f b7fb 0d3f
00000080: ab2b 043f b452 e43e 2459 b33e 0ee2 a93e
00000090: 1434 683e b1e6 0d3e 13cd 763d 50d6 a03b
000000a0: fa25 922d 11ec abac 9a99 2329 39ac d129
000000b0: a763 7429 eba4 cd3f 0848 d13f 3f88 d73f
000000c0: 66d3 df3f c178 e83f 3b79 b33e 0213 943e
000000d0: 591c 853e 318c 8e3e 2b67 ab3e 8e2c 2a40
000000e0: e36c 2740 f6a4 1f40 2abb 1440 0bcf 0740
000000f0: 289f 2a3c 40c2 4dbd abe2 dfbd fb0d 25be
00000100: a1e6 39be 570b 913d 35e3 a13d 09bf a53d
00000110: da64 973d a528 7b3d 121c 503f 3827 323f
00000120: 14a6 043f 6bbf b23e c32b 453e 6c62 0840
00000130: 6835 0740 6e8c 0240 c008 f93f 2b4f ed3f
00000140: 0e20 02be 4d39 0ebe f027 1fbe 22c8 2bbe
00000150: 8776 2fbe 356f 66bf 7e43 71bf 1a72 79bf
00000160: 6170 80bf bab4 83bf f9cd 39bf f4f1 25bf
00000170: 3bcb 16bf e0f5 0bbf 031b 06bf c399 fcbf
00000180: 706c 02c0 3cec 07c0 358e 0dc0 2b8b 11c0
00000190: 4d8f 2dbf 6025 21bf 87f2 12bf 6afb 06bf
000001a0: bdfa f2be 5871 90c0 290d 90c0 f47f 8fc0
000001b0: ae5e 8fc0 d4fc 8fc0 a1be ce3a bef8 9bbc
000001c0: 7d4c 04bd bedc cebc 02a7 64bb ef5e 82bf
000001d0: 12fe 77bf adfc 76bf f700 80bf 28bd 85bf
000001e0: 2c6d 24aa ff9d 2bb0 7d41 6f31 e90a fb31
000001f0: 2b75 d932 2a5b edbf 5247 f5bf 4883 ffbf
00000200: 6974 04c0 c3e4 08c0 2f92 57c0 a013 5ec0
00000210: b9e9 65c0 2bd7 6cc0 b556 72c0 070c 24c0
00000220: 42e0 1cc0 8abe 14c0 45e4 0bc0 31a5 02c0
00000230: ccb7 48bf 6ba4 4cbf 59eb 52bf f855 59bf
00000240: 3f83 68bf 5741 b53a 6ef9 703a 5873 503a
00000250: 2e07 3539 03e5 e83a aa57 4fbf 7286 31bf
00000260: ec0e 10bf 5a85 d7be 5853 9cbe 019c bdc0
00000270: de9b bac0 d199 b7c0 8053 b4c0 81f6 b0c0
00000280: 1bdd 1cb8 57bd cab7 6fb8 70b9 4bcf 1cb9
00000290: f603 0080 d12d 443a 3cbf c7ba a40f 1dbb
000002a0: 7a56 10bb 85b3 dfba 09c0 3b3f 0088 313f
000002b0: f80f 263f a7e4 173f 18e4 043f 4b43 583f
000002c0: 54d7 4a3f 8986 453f bba3 483f aa1d 513f
000002d0: a931 863e 7245 8f3e e1a6 943e 88fb 973e
000002e0: 806d 953e d36a 343f 394b 2a3f 0ebc 223f
000002f0: 3d35 193f 6044 0c3f 372e ee3e e858 023f
00000300: cac0 083f 7263 083f 06c6 023f e4fb cd3e
00000310: 1dbc a53e b4b9 733e 360c 3d3e 9c8c 183e
00000320: eece c926 03a2 652f 872d a02f baf9 eba1
00000330: ca65 b720 9299 eb3f b770 f13f 9eb1 f53f
00000340: 2439 fb3f 96a1 0140 7708 cf3d dd08 5b3d
00000350: 59f3 063d 68ed f03c 7024 ea3c 735a 0a40
00000360: 4e4e 0c40 4a71 0c40 4620 0b40 4957 0740
00000370: e948 2c3e 67dd ed3d 20f6 ba3d c003 8d3d
00000380: 71c6 0e3d 99a2 843d d3bc a33d 4afc b43d
00000390: ade1 b83d 50b5 b33d 9fc4 a93e 5453 a83e
000003a0: 50f7 9c3e 55bd 813e 969c 263e d9c5 943f
000003b0: 2806 913f 21e0 8c3f 5721 873f d21b 7f3f
000003c0: 3ee5 9bbd 459e 9dbd 9539 a3bd bb60 aabd
000003d0: eb4e a8bd b141 97be 2198 9dbe f5dc 9dbe
000003e0: 5096 95be d4f0 87be 6576 223f 367d 2d3f
000003f0: 0a2a 2b3f 25d3 1d3f 8b27 093f 5170 313f
8.999583e-05 -2.0577722e-06 1.6277169e-17 -1.4188939e-07 -9.29962e-08 0.02698939 0.02117839 0.036437575
0.060176846 0.07590561 0.93547684 0.77724916 0.63517016 0.5103303 0.40021843 0.6130968
0.59177697 0.6138496 0.66848356 0.7494044 0.48307097 0.52819896 0.51036495 0.45486453
0.39748237 1.1805933 1.1244224 1.0988541 1.0968032 1.1007284 0.55598164 0.5546221
0.5162913 0.44594347 0.35028946 0.3318028 0.22676116 0.13857533 0.060254168 0.0049083605
1.6615143e-11 -4.886321e-12 3.63265e-14 9.3113404e-14 5.4265318e-14 1.6065954 1.6350107 1.6838454
1.7486389 1.8161851 0.3505343 0.28920752 0.2599819 0.27841333 0.33477148 2.6589694
2.616021 2.4944434 2.3239236 2.122012 0.010413922 -0.05023408 -0.10931905 -0.16118614
-0.18154384 0.07082241 0.079046644 0.08093078 0.07392283 0.06131806 0.8129283 0.69591093
0.51815915 0.34911665 0.19254975 2.1310072 2.1126347 2.0398211 1.9455795 1.8539785
-0.1270754 -0.13889046 -0.15542579 -0.16775563 -0.17135058 -0.9001344 -0.9424361 -0.9743973
-1.0034295 -1.0289528 -0.72579914 -0.64822316 -0.58903855 -0.5467205 -0.52384967 -1.9734424
-2.0378685 -2.1237936 -2.2118046 -2.2741191 -0.67796785 -0.62947655 -0.5740132 -0.5272738
-0.47456923 -4.513836 -4.5016065 -4.4843693 -4.4803076 -4.499613 0.0015773365 -0.019039508
-0.032299507 -0.025251742 -0.0034889583 -1.0185221 -0.96872056 -0.964793 -1.0000294 -1.0448351
-1.4604003e-13 -6.2433964e-10 3.4816303e-09 7.306302e-09 2.5315407e-08 -1.8543446 -1.916239 -1.9961939
-2.069605 -2.1389625 -3.3682973 -3.4699478 -3.5923903 -3.7006328 -3.7865422 -2.563234
-2.4511876 -2.3241296 -2.1858075 -2.0413325 -0.7840545 -0.7993838 -0.8239036 -0.848968
-0.90825266 0.0013828677 0.00091924414 0.0007951758 0.0001726418 0.0017768446 -0.8099314 -0.6934577
-0.5627277 -0.42093927 -0.30532336 -5.9252934 -5.8315268 -5.7375264 -5.635193 -5.530091
-3.739922e-05 -2.4168445e-05 -0.0002295689 -0.00014954542 -1.421e-42 0.0007483634 -0.0015239487 -0.0023965621
-0.00220242 -0.0017067051 0.733399 0.69348145 0.64868116 0.5933327 0.51910543 0.8447768
0.79234815 0.7715841 0.7837483 0.8168589 0.26209763 0.2798267 0.29033569 0.2968409
0.29185104 0.704755 0.6652103 0.635682 0.5984686 0.5479183 0.46519634 0.5091691
0.5341917 0.5327674 0.5108341 0.4023124 0.32370082 0.23801309 0.1846169 0.14897388
1.4003265e-15 2.0884987e-10 2.913618e-10 -1.5990321e-18 3.1068764e-19 1.8406241 1.8862523 1.919483
1.9626813 2.0254874 0.101090364 0.05347525 0.03294692 0.02941008 0.028581828 2.1617706
2.1922793 2.1944146 2.1738448 2.1147025 0.16824688 0.11614495 0.09128976 0.06885481
0.034857217 0.064763255 0.07995 0.08837183 0.09027419 0.08774817 0.33157822 0.32876074
0.30657434 0.2533976 0.1627067 1.1622878 1.1330004 1.1005899 1.055705 0.99651825
-0.07612084 -0.07696203 -0.07969967 -0.08319231 -0.082181774 -0.29542306 -0.30780128 -0.3083264
-0.29216242 -0.26550925 0.63461906 0.6776918 0.6686102 0.61650306 0.5357596 0.69312006
