saved_models/convcnp-matern/model_best.pth.tar (torch_old, 86142 bytes, 45 tensors)

conv_net.conv_net.0.weight f4 [16, 8, 5]
00000000: 300a 8bbd 9471 57be 9b0f 14be a257 183d
00000010: 6f37 41bd 50f5 dcbb 0331 993e 10a3 4e3e
00000020: 31bb 223c 5084 863d 2e94 82be a076 2a3e
00000030: 6eaa 233c 94ce 993d d156 6e3d c4bc 15ba
00000040: e993 1e3e 55be 663e 63ef 5d3d 1ba3 c3bd
00000050: b552 58be 7f3e b63c f325 f2bd 427d babd
00000060: f3cc 25bc 1bf1 67bd 3585 e4bd 9194 09be
00000070: 957e 63be 81cc 81bd 1939 ddbc 37ac 283d
00000080: 1798 dc3d b298 23be 6f66 8bbd c06a 16be
00000090: c574 6e3d 745a b4bd f9eb a8bd 530b d23c
000000a0: b091 5cbe 8173 06bc 51a5 8fbd 4e0a 62be
000000b0: 78e9 d0bd c78c 68bd d971 fa3d 6107 a23d
000000c0: c8ca e8bd 49d5 25be ac15 ac3e 55a1 48bd
000000d0: 1094 7b3e a545 7bbe 80bc 1a3c da35 4cbe
000000e0: 51a4 5b3e f226 9bbd 4d99 8e3e 7ce6 4f3d
000000f0: bb51 18bd 6502 c43d f5c4 0e3e 7a3f b6bd
00000100: 0a92 51bb 847d 1f3d 80dd 773d 1604 9bbb
00000110: 30fd 0f3d f41f 89be daa4 123e 9f46 6ebd
00000120: 9ffa 603e 3473 d43c ef4e 8cbd e2ce 383d
00000130: ae0e b2bd f91f bf3d 2608 10be ac43 76be
00000140: 76ce 663d 2f96 3a3d ecc7 e03d ad08 f9bd
00000150: f156 b13e c157 913e f99c 03bd e878 553e
00000160: 913f 08be 2a4f 9fbd 31e6 cc3c c193 ac3c
00000170: 6467 333d 1e5d 19bd 66b4 cfbd 8b8b 46be
00000180: 2f6f 03be 9e29 1c3e b169 c4bd 7387 023d
00000190: 23b6 da3d 1355 903d 7e01 423d 8a39 05bb
000001a0: 2f5b abbd 6521 223e a322 e13d 8391 0bbe
000001b0: 84f0 04be 0676 96be af0d babc f508 60bd
000001c0: 300e 3a3e c80d 75bd 64f5 29be 05b7 dfbd
000001d0: eec9 0fbe b2fd feba 31be 8e3d ef22 483e
000001e0: 21e9 9dbe bdc4 5abe d664 b03d 3dd2 e03d
000001f0: 56b7 353e 0dc6 ebbc 07f9 80bc d458 103e
00000200: 163b 7ebc f0ee 843c ef35 d33d 1789 0e3e
00000210: 9d51 5fbe 095c d1bd 1aa0 dd3d 042f 9c3c
00000220: 853c 603d dee2 b1bd 0c91 11be 01cc f13c
00000230: 6eca 9ebd 3a69 f03c ef34 893c bc29 fa3d
00000240: 3b02 91bc 7f20 d03c 6e2c 3f3e ebf3 bb3d
00000250: fbb1 a03d 6b10 723e 168a 88bd 6630 cf3c
00000260: 2f17 e3bc 7679 7ebe cf4c 343e 68f4 9abd
00000270: dd68 21bd 97f0 653d 31bf 613e 68c0 76bd
00000280: e27e 423d 9643 013d a745 ed3c de26 523d
00000290: d389 2a3d ebdb 523e 5942 b3bd 9c38 49be
000002a0: 86a2 c1bc 9732 4d3e faab ffbc 2d15 e6bd
000002b0: f071 4b3e f038 903e 2c9f a2bd 5abf 1fbe
000002c0: 2280 7ebc 7ae9 1fbe a84c f1bd 6d33 ca3d
000002d0: f7e6 d93d 24d0 963d 10b6 bc3d ea15 a8bd
000002e0: 9711 723d 727a bb3a b5d7 bcbd 81a4 94bd
000002f0: ff9b 1abe 5295 40bc 4b0d 08be bc94 433e
00000300: a921 88bd 630d 103d bb13 0d3d aa04 36bd
00000310: b668 ab3d 0978 073e 2583 73be 9a0f aabd
00000320: 7941 c13d f39b 2abe 6683 3dbe 5c2a 193e
00000330: ca06 aabc 1a1e 5c3e 5181 323d d298 8d3d
00000340: cd79 06be 631d 8d3d 95e7 9f3b 4b2f e33c
00000350: 1ab2 e73d dc11 103e 8840 073d b082 fa3d
00000360: fcd2 88be 9373 e63e 2dd4 6b3e 2a3a 14be
00000370: 860f 1fbe 8124 b2bd 6932 54bd 3b4e 143e
00000380: 9f59 adbd 4580 833e 8a39 193d 6037 d8bd
00000390: 6104 e9bd d39a 823d b058 18bd 741b 0fbe
000003a0: 92ae b83d f1b6 d0bb 262b e4bc 1b20 88bc
000003b0: be20 793e ca51 bfbd eada bebe 363f 403e
000003c0: 13f7 6a3e e502 f63d 1653 0d3e 0e0d ddbd
000003d0: 35cd 843d c927 cdbd 687b 923d 66d9 f9bb
000003e0: 09d5 41ba 1506 84be 1f54 2abe 0770 a23d
000003f0: ef78 20be 4986 6f3d a1e4 b63d 4670 21be
-0.067890525 -0.2103942 -0.14459078 0.03719295 -0.047172006 -0.0067431107 0.29920205 0.20179391
0.009932325 0.06568205 -0.25503677 0.16646814 0.009989364 0.07510105 0.058188263 -0.0005712027
0.15486111 0.22533543 0.054183375 -0.09552594 -0.211253 0.022246597 -0.118236445 -0.09105922
-0.0101196645 -0.05662642 -0.1115822 -0.1343558 -0.22216256 -0.06337834 -0.027004765 0.041179862
0.10771196 -0.15976217 -0.06806647 -0.1468916 0.05821683 -0.08806315 -0.08248133 0.025640165
-0.2153995 -0.008206249 -0.070139535 -0.22074243 -0.10200781 -0.05677488 0.12228746 0.07911564
-0.113668025 -0.16194643 0.33610284 -0.048981983 0.245682 -0.24538286 0.009444356 -0.19942418
0.214494 -0.075757876 0.27851334 0.050756916 -0.03718732 0.09570769 0.1394232 -0.08898826
-0.0031977915 0.03893806 0.060513973 -0.0047307117 0.035153568 -0.2678219 0.14320698 -0.05817282
0.21970604 0.02593384 -0.06850993 0.045119174 -0.08694206 0.0933227 -0.14065608 -0.24049252
0.05634924 0.045553382 0.10975632 -0.12159858 0.34636644 0.28387263 -0.032132123 0.20846903
-0.13305499 -0.07778771 0.025012108 0.021066548 0.043799773 -0.03744232 -0.1014183 -0.19389169
-0.12835382 0.1525025 -0.095904715 0.031867456 0.10679271 0.070474766 0.047364704 -0.0020328485
-0.08367001 0.15833052 0.109929346 -0.13629727 -0.12982374 -0.2938692 -0.022711603 -0.054696042
0.18169475 -0.059827596 -0.16597515 -0.1092358 -0.14041874 -0.0019454269 0.0696987 0.19544576
-0.30841926 -0.21364112 0.08612983 0.109776 0.17745718 -0.028780961 -0.015743745 0.14096385
-0.015517017 0.016227216 0.103130214 0.13919483 -0.21808477 -0.102226324 0.108215526 0.019065388
0.054745216 -0.086858496 -0.14215487 0.029516222 -0.07753454 0.029347051 0.016748874 0.122149915
-0.017701259 0.02540612 0.18669292 0.09177383 0.07846447 0.23639075 -0.06666963 0.025291633
-0.027721016 -0.24851021 0.17607425 -0.07566148 -0.039406646 0.056137647 0.2204559 -0.060242087
0.047484286 0.031558596 0.028963877 0.051306598 0.041635346 0.20591705 -0.08752889 -0.19650501
-0.023637068 0.2003883 -0.031209935 -0.11234508 0.19867682 0.2816844 -0.07940516 -0.15600339
-0.015533479 -0.15616408 -0.11782199 0.0987309 0.10639756 0.073639184 0.09214413 -0.08207305
0.059098806 0.0014303459 -0.0922083 -0.07257939 -0.1509857 -0.011754351 -0.13286321 0.19099706
-0.06647045 0.035169017 0.034442645 -0.04443804 0.083695814 0.13229384 -0.23780496 -0.08303757
0.09436316 -0.16661052 -0.18507156 0.14957565 -0.02075519 0.21495858 0.043580357 0.06913914
-0.13132401 0.06890371 0.0048799017 0.027732512 0.11313267 0.14069313 0.033020526 0.12231958
-0.26723468 0.4501005 0.23030157 -0.14475313 -0.15533265 -0.08698369 -0.051805887 0.14482968
-0.084643595 0.256838 0.03740839 -0.10557437 -0.11377788 0.063771866 -0.037193954 -0.13975316
0.09017672 -0.0063694646 -0.027852606 -0.016616872 0.24328896 -0.09341772 -0.37276393 0.18774113
0.22945814 0.12012271 0.13801226 -0.107935056 0.06484453 -0.10017354 0.07152444 -0.007624793
-0.00073941104 -0.2578589 -0.16633652 0.07931524 -0.15671133 0.058477674 0.08930326 -0.15765485

conv_net.conv_net.0.bias f4 [16]
00000000: 8628 d43c 9b29 8a3b 7a9c 8739 a0f9 70bb
00000010: 1509 b8bc b4b9 073c 5c90 0c3c 2784 123b
00000020: c8ec 8bbc d00d 3c3c 27a1 3f3c d302 84bc
00000030: 5be8 a6bc 5c38 4a3c 130b 3e3c d196 173c
0.02589823 0.0042163855 0.0002586579 -0.0036769882 -0.022465268 0.008284021 0.00857934 0.00223566
-0.01708068 0.0114779025 0.011696137 -0.016114628 -0.020374468 0.012342539 0.01159932 0.009252266

conv_net.conv_net.2.weight f4 [32, 16, 5]
00000000: c5e4 a8be 029d 8cbe ada3 f13b 7884 413d
00000010: 6c21 97ba a58a 37be 06fe abbd c4ee e03c
00000020: 1e33 00be cc3a 4cbe 6efc 973d ac3b fc3d
00000030: 670c bd3c a2c2 6abd 818d d4bd 7090 eb3d
00000040: 3ca5 ba3b e448 043d 644c 3a3d 5415 b4bd
00000050: 5522 bc3c 2b69 e53d 128a 043d 819f 83bd
00000060: dfcc 293e 59df 26be d2b5 d23c b233 09be
00000070: fbd4 903d 19d7 93bb 978f 773d c369 e3bd
00000080: e193 513d 677c aa3d bc9f 3abe fd4e 07bc
00000090: a3f4 3d3d d731 40bd b642 6abd c7a8 dcbd
000000a0: d77d 223d 7d0b edbc 315c d239 d7ce 853a
000000b0: 2040 fd39 cce1 933d 1b2c 683d e55e a5bd
000000c0: a788 de3d 050c 083e 505f 50bc a81f aa3d
000000d0: c716 52bc 639b 07bc 0e0e c7bd fa7f 1f3e
000000e0: e477 1e3e 1904 20bd bb8b 783c 6870 05be
000000f0: 1d4b 8fbd c9f8 db3d e480 4bbe 250c 21be
00000100: 904e c5bd bd82 37bd 8ea3 573e c73b 5abc
00000110: ea8c 79bc bf25 fdbc b05f 8a3c cb3f 8ebd
00000120: 8f7e 233d 806a 30be f650 c7bc 62a6 0abe
00000130: 8047 a4bc 3877 b03d 66c1 a23d c825 04be
00000140: fdf6 d33d 5d92 ff3c 7cea 253d 6e15 d63d
00000150: f5ff 4e3d 7bd7 dd3c 578b 81bd afb1 1d3d
00000160: 8c33 323d 0cfa 713d 299c b9bd 3af7 323d
00000170: 3f66 133e bf08 a4bd f119 673d 218e d7bc
00000180: bbb4 5abd 999d 7d3d f705 41bd 5f2e 743b
00000190: 89f4 d2bd ad01 973d b7fd c0bd 1d66 e73d
000001a0: b0a5 c93d 1765 fbbd 4747 8f3d 3d9e 113e
000001b0: dd81 8c3c b0cd 113e 3879 36bd ac9a 4a3d
000001c0: 12cc e93c 789d 39be d2d5 833b cd7d 34bd
000001d0: 0be2 44be 0a6d 7dbd eb78 0ebd 326d 2b3d
000001e0: 1627 06bc 68da c03c c81a e63c effc 353c
000001f0: 25bb 273c 17f0 07bd 0bdf c2bc 4729 803b
00000200: 8891 33bd c8fa 46be 70bd 99bb 76ee f33d
00000210: 1c27 ae3d 6758 d33d 3b9a 583d f6d2 da3c
00000220: 8ba1 a53c 285e f93d 0a67 31b9 e4d7 043e
00000230: d99d d4bd 3bd9 af3d 1b3d a53d 8492 2f3d
00000240: dfc5 08be 80fe 96bc ffb8 0f3d b7a5 92bd
00000250: 4a5d ddbc d39c 6abc 65a8 0bbe 572a 7dbd
00000260: fc09 f1bc 9b35 05bd d736 58be 1675 9ebb
00000270: 6e30 383d a732 f13d b7f3 093c f678 573d
00000280: ddb4 76be 67d7 c5ba c44c 5c3e 88c9 39be
00000290: 8b2e 4182 1f07 63be 7e3c 053f e928 b33e
000002a0: f003 1e3e 30b0 bcbd 71d2 2cbc 8d92 a23d
000002b0: 8546 dd3d 391d 683d 13de 4abc e128 303c
000002c0: 7dfc a73d 3f11 46bd 2598 433e d039 3e3c
000002d0: 73ab 483e 918b b7bd 858a 603d 6de9 72bd
000002e0: b15a a2bd 7251 903d dc6c c0bc 76bf 86bd
000002f0: 6a5a 86be d1a3 03be 7c3e 093e 7d37 13bd
00000300: 7886 813d cf03 dd3c 64fb cc3d bb98 bf3d
00000310: 8b47 a6bc ccdc 7dbe 2e1b 81be a07e 413d
00000320: b4cd 773c 4108 4dbd 7ee6 10bc 5e32 10ba
00000330: 3444 5c39 fbb1 85bd 8dce 9abd c788 163d
00000340: b220 733e da4f 5dbd 0854 443e e54b 1bbe
00000350: 0b87 2fbd 1a08 8fbd a947 1bbe a86e e03d
00000360: 96a5 4c3d 309f 913d 51e9 4b3d b168 563d
00000370: 1a98 6bbe 7be1 74bd 629f ce3d 641d 473e
00000380: fedc 9d3e 8383 cf3e 6947 cc3d f966 5b3e
00000390: d1bf f73d 549e 9f3d 99bb 82bd aed3 b43d
000003a0: 7d66 43bd 0099 dabd 9319 303d 827b e0bd
000003b0: bd12 9f3d ae86 33be bc91 ffbd e274 83bd
000003c0: 9caa a9bd 6359 6f3d d039 d83d cf98 2b3e
000003d0: f778 0b3d d3e4 35bc 378f 093e 93e7 adbc
000003e0: 4b30 8fbd 2d26 92bd b8bb ca3d 540c 123c
000003f0: d503 9fbc eb62 d0bc bc18 463e b1fd 3b3e
-0.32987037 -0.27463537 0.007374248 0.047245473 -0.0011530346 -0.17923982 -0.083980605 0.027457602
-0.125195 -0.19944304 0.07421194 0.12316069 0.023077203 -0.057314523 -0.10378552 0.11502159
0.005695967 0.032296076 0.045483008 -0.087931305 0.02296559 0.112017 0.032358237 -0.06426907
0.16582058 -0.16296138 0.025721464 -0.13398626 0.07071873 -0.0045117256 0.060439672 -0.11104157
0.05116642 0.08324509 -0.18224996 -0.008258578 0.046375882 -0.04692253 -0.057192527 -0.10774379
0.03967079 -0.028936142 0.0004012301 0.0010208738 0.00048303697 0.07220802 0.056682687 -0.0807474
0.10865908 0.13285835 -0.012718037 0.08306819 -0.012822813 -0.008276793 -0.097194776 0.15576163
0.15475422 -0.039066408 0.015170033 -0.13031161 -0.069967486 0.107408114 -0.19873387 -0.15727289
-0.09634125 -0.044802416 0.21058485 -0.013319916 -0.01523135 -0.030901788 0.01689133 -0.06945761
0.039915618 -0.17228127 -0.024330597 -0.13540033 -0.020053625 0.08616489 0.07947044 -0.12905037
0.10349844 0.031197721 0.040506825 0.10453306 0.05053707 0.027080288 -0.06325405 0.03849953
0.04350619 0.059076354 -0.09062988 0.043692805 0.14394473 -0.08009481 0.056421224 -0.02631289
-0.053395014 0.061917875 -0.04712483 0.0037259085 -0.10300548 0.073733665 -0.09423392 0.112987734
0.098460555 -0.12275141 0.06996017 0.1422052 0.017151767 0.1423862 -0.044549197 0.049463913
0.028539691 -0.18126476 0.004023292 -0.044065285 -0.19226854 -0.061871566 -0.034783285 0.041852184
-0.00818803 0.023541644 0.028088942 0.011107667 0.01023749 -0.033187952 -0.023787996 0.0039111706
-0.04383996 -0.19431603 -0.004691772 0.11910717 0.08503553 0.10319596 0.05288146 0.026711922
0.020218631 0.12176162 -0.0001691842 0.1297298 -0.103816696 0.08586355 0.080682956 0.042864338
-0.13356732 -0.018431902 0.035088535 -0.07160514 -0.027022023 -0.014319616 -0.13638456 -0.061807957
-0.029423706 -0.032521825 -0.2111467 -0.004835735 0.04496806 0.11777239 0.008419923 0.05260559
-0.24092431 -0.0015094102 0.21513659 -0.18143284 -1.4192758e-37 -0.22170685 0.5204543 0.3499215
0.1543119 -0.092132926 -0.01054822 0.079381086 0.10804466 0.056668494 -0.012382048 0.010751934
0.08202455 -0.04835629 0.19101007 0.011610463 0.19596653 -0.08962167 0.054819603 -0.059304643
-0.07927454 0.070467845 -0.023489408 -0.06579487 -0.26240855 -0.1285546 0.13402742 -0.03594159
0.06324476 0.026979355 0.100088865 0.09355303 -0.020297786 -0.24791259 -0.2521605 0.0472399
0.015124727 -0.0500567 -0.008844016 -0.00055006694 0.00021006243 -0.06528088 -0.07558928 0.036751535
0.23742941 -0.05403123 0.1917268 -0.1516567 -0.042853396 -0.06983967 -0.15164055 0.10958606
0.049962603 0.07110441 0.049783055 0.052345935 -0.23007241 -0.059785347 0.100889936 0.19444805
0.30832666 0.40530023 0.09974558 0.21426 0.12097133 0.077938706 -0.06383438 0.08829437
-0.047705162 -0.10673714 0.04299314 -0.10961057 0.07767246 -0.17531845 -0.124789685 -0.06418778
-0.08284494 0.058434855 0.10557902 0.1675751 0.034050908 -0.011101919 0.13433538 -0.021228587
-0.06991633 -0.07136188 0.09899086 0.008914072 -0.019411007 -0.025437793 0.19345373 0.18358494

conv_net.conv_net.2.bias f4 [32]
00000000: 2c0d 223d 8461 993c b2ae e93b a1fd 5fba
00000010: 6f6f d0bb 58f8 3b3c 31d4 32ba 076c 903c
00000020: 86e8 be3b d8e6 e9bc 32e2 c3ba 74d2 95ba
00000030: a4ea 1fbd 9827 f33b 3d19 7ebc 85e4 393b
00000040: 175d e43b 3e43 3dbc e861 8a3c c63f 0dbd
00000050: c69c f63b 5c57 8fbc 63e9 17bb 8ac3 c6bc
00000060: 2d1c 1dbc 128d debc 1305 6f3b 475a 80bc
00000070: 5a91 8a3c 248b 46bc 99c1 7e3b 42ee c6bc
0.039563343 0.018723257 0.007131421 -0.00085445686 -0.00636094 0.011472784 -0.000682178 0.017629636
0.005826059 -0.028552458 -0.0014944731 -0.0011430518 -0.03904213 0.0074204914 -0.015508947 0.0028364968
0.006969105 -0.011551676 0.016892388 -0.034484647 0.007526013 -0.01749771 -0.002317988 -0.024263162
-0.009589237 -0.027166877 0.003647153 -0.015668048 0.016915012 -0.012118135 0.0038872717 -0.024283532

conv_net.conv_net.4.weight f4 [16, 32, 5]
00000000: 0bdc f73d d289 653e e7a2 10bc 1399 c53d
00000010: d6fe c93d b62b 2b3c 11bf c03d c2ee 353d
00000020: 7172 323d 5def d93d f5ab d33d 2f26 4b3c
00000030: 7bd3 3bbd aaf5 8dbb a721 bfbd bf8e bf3d
00000040: be0b c53d 9019 9f3d 88b0 c63d 39ba e7bd
00000050: d4a2 29bd 720f 5bbc 55ab 473e 5810 563d
00000060: c1c9 813e 2b1b a83e 36ff 573e 19b2 8a3e
00000070: bc7e 603e 2b8a b63e c6de 97bd db8d dc3d
00000080: 6223 e1bc f6fc 88bd 650e 313c 3839 483d
00000090: c505 a9bd 27c9 663d e580 123e 739b 57bd
000000a0: 6545 453d febc b83d 65e1 0b3d 42ad 2b3d
000000b0: e675 373d 61be 36ba 9dbb 9e3b 3154 90bd
000000c0: 7f68 02be ded8 22be 138b c63c ed5c 56bb
000000d0: 9d47 1cbe 799c 0b3c 0926 59be 30ef 0ebd
000000e0: 0f9b 9b3d af49 b1bd 48ee 6f3e af62 52bd
000000f0: c66d f93c e7a8 c03c 95c9 6abc 8c89 b4bd
00000100: 5d2b 183e ba18 263e a2f4 6d3d 8004 b2bb
00000110: 8f94 073d 4966 ce3c c03d f2bd 24de 8b3c
00000120: 1a81 8c3d 2f35 013e d2de b83e f238 403e
00000130: 14ed 033d e544 af3d af64 30bc 2bc0 2ebd
00000140: eb99 103e 489f fc3d 8752 2ebc 9538 893d
00000150: 491a 4a3d b3d5 763d 959c ccbb c5de 1bbe
00000160: 3690 7c3c cf6e 6bbe 859f 823e 2582 c3bb
00000170: 0754 a53d aed6 e03d 485f 133d 90b6 21bd
00000180: d02e 393d e442 e7ba 6861 63bb 70c8 1936
00000190: 30ba 833d 79d9 26bc dc26 4b3e 876c e0bc
000001a0: 19b2 403d 0e4f b23d 7a44 30bd 642e 973d
000001b0: 5d88 8c3d f583 c7bd 883d 2b3b e6ef 113b
000001c0: cb25 e83a 8243 af3a c9d7 8b3a 3802 573e
000001d0: c309 433e a9b2 933e 13d8 a03e 25ec 443e
000001e0: 4185 b4bc d8aa b7bc bd98 843d fe67 cabd
000001f0: 1875 df3c af28 b83b 0b77 243c 7f40 533c
00000200: f8e3 cf3b 12e3 d53b 43e4 f5bd 0f24 c83d
00000210: cb44 f03b bf6a 123e a672 113e cd6c 433c
00000220: 0703 e4bc 4cd1 953e 899c 563e 1df7 0d3e
00000230: e75d 22be f46f 24bd e7c5 6d3d 6303 8a3d
00000240: 03ec 983d 5358 373e 9dd7 12be a4da e8bd
00000250: befd 4dbc 261c 833c 9593 d8bd 80ed bbbb
00000260: 5d51 283c 651a 8b3d 0e61 933e 7030 69be
00000270: 245d 07be 4641 053d e2ad 353c 2f3d 47bd
00000280: 5905 403e 2806 663d b748 ba3d b582 76bd
00000290: 26e5 98bd ba11 8fbd 2c5f f4bd 6797 a4bc
000002a0: f398 7e3d 6fbe 3c3e 8b48 5c3d 4455 8f3d
000002b0: a7c6 4f3d 9362 46be a24d 22be e7af 0cbe
000002c0: 33ae 3a3c 9599 013e 686a 313e 569a 2f3e
000002d0: 4321 17be 4dcf 99bd 7ff9 7dbe 9a0d a3be
000002e0: abc5 d9bd 30a7 20be 5436 563d 2b96 9e3e
000002f0: 5027 883c 477b c3bd ba88 a0bd 590b ebbd
00000300: 86f6 e0bd cbeb 203d 9085 f4bd 78fa bbbd
00000310: b151 373d 0a86 513d f73c b63c 52e9 6dbb
00000320: abe9 b13d 90cf a5bd 13da 04be 6d29 d83d
00000330: a7a9 6f3e aff6 f9bc 9668 8b3a c0f4 aa3b
00000340: 8d2f 46be 479b 68be bd5c 563d fbe5 acbd
00000350: e709 3bbd 98c6 e7bb 02b9 ea3d 0be2 ad3c
00000360: b19b ccbd f905 b6bd 1a8d 9bbd 36d2 333e
00000370: ef6a e73d 55c5 e53d 7405 133d c25a 9f3d
00000380: 5a67 42bc ed46 393d f069 acbb 076b 643d
00000390: d094 803d 39c1 b13d 9746 953d 508b 1fbd
000003a0: 43f0 3a3d 0aaf 783d 61d6 90be 8cd9 a43d
000003b0: f50d 8d3d 0fa0 20bd dab1 2bbe 9769 85be
000003c0: 0e73 1f3b 2067 d8bd 4c6a 26bd bd32 c0bd
000003d0: eff3 183d 4988 3a3e 39ec f83d f9c2 0bbe
000003e0: 7b1b 143d 62e0 48be bbc9 92bd d648 2abc
000003f0: 1ae2 693d 7bee 823d d915 a23d 83db 26bd
0.12102517 0.22415856 -0.008827901 0.09648337 0.09863059 0.010447433 0.09411443 0.04441715
0.04356617 0.10641358 0.103355326 0.01239924 -0.04585598 -0.004332264 -0.093325906 0.093533985
0.0962138 0.077685475 0.097016394 -0.11314816 -0.04141505 -0.013370382 0.19498952 0.05226168
0.2534924 0.32833228 0.21093449 0.27089003 0.21923345 0.3565229 -0.074155375 0.10769244
-0.027482692 -0.066888735 0.010806655 0.048882693 -0.082530536 0.056344178 0.14306982 -0.052638482
0.048161883 0.090204224 0.0341505 0.04191328 0.04479017 -0.00069711177 0.0048441426 -0.07047308
-0.12735175 -0.15903041 0.024236238 -0.0032709197 -0.15261693 0.008521193 -0.21205916 -0.034896076
0.075979345 -0.08656632 0.23430741 -0.051363643 0.030447852 0.023518039 -0.014330287 -0.088152975
0.14860292 0.1622037 0.05809463 -0.0054326653 0.03310066 0.025195258 -0.11828184 0.017073698
0.06860562 0.12617944 0.36107498 0.18771723 0.032208517 0.085580625 -0.010766192 -0.042663734
0.14121215 0.12335068 -0.010639793 0.06700245 0.049341474 0.060262393 -0.006244252 -0.15221699
0.015415242 -0.22991489 0.2551233 -0.005966442 0.080726676 0.10978447 0.03597954 -0.039480746
0.04521066 -0.0017643836 -0.003469551 2.2915447e-06 0.06431997 -0.010183685 0.19839042 -0.0273955
0.047044847 0.08706485 -0.043034054 0.07381895 0.06861947 -0.09741966 0.0026129205 0.0022268235
0.0017711458 0.0013371559 0.0010669167 0.2099694 0.19046693 0.28847244 0.31414852 0.19230707
-0.022036197 -0.022420332 0.06474445 -0.09883116 0.027277514 0.0056200842 0.010038148 0.012893795
0.0063443147 0.006527313 -0.12006428 0.09772503 0.0073324195 0.14298533 0.14203891 0.011927796
-0.027833475 0.29261243 0.20958151 0.13863797 -0.15856133 -0.04014583 0.058050063 0.06738927
0.07466891 0.17904787 -0.14340062 -0.113698274 -0.012572704 0.016004633 -0.10575024 -0.0057350993
0.010273305 0.06792144 0.28784984 -0.22772384 -0.13219124 0.032532953 0.01108882 -0.048642334
0.1875204 0.056158215 0.090959005 -0.060183246 -0.074655816 -0.06985803 -0.11932215 -0.020091726
0.062157582 0.1843202 0.05378012 0.06998685 0.05072656 -0.1937354 -0.15849927 -0.13738976
0.011394071 0.12656243 0.17325747 0.17148718 -0.14758782 -0.075102426 -0.24802206 -0.31846315
-0.10633405 -0.15688777 0.052297905 0.30973944 0.016620308 -0.09544998 -0.078385785 -0.11476774
-0.109845206 0.03928737 -0.119395375 -0.091786325 0.04475564 0.05115322 0.022245867 -0.00363024
0.08687147 -0.0809623 -0.12973814 0.10554776 0.23404561 -0.030513136 0.0010636027 0.0052171648
-0.19354077 -0.22715484 0.052334536 -0.08442303 -0.04566374 -0.0070732348 0.11461069 0.02122595
-0.09990633 -0.08887858 -0.07595272 0.17560658 0.11299693 0.11219279 0.035893872 0.077809826
-0.011865461 0.045233656 -0.005261652 0.05576613 0.06278384 0.086794324 0.072888546 -0.038951218
0.045639288 0.060713805 -0.28288558 0.08049306 0.06887428 -0.039215144 -0.16767064 -0.2605712
0.0024330053 -0.105665445 -0.040628716 -0.093846776 0.03734201 0.18216051 0.12154431 -0.13648595
0.03615902 -0.19616845 -0.07167383 -0.010393342 0.057100393 0.06393143 0.07914323 -0.040736686

conv_net.conv_net.4.bias f4 [16]
00000000: 8487 3e3d 8d30 43bd 2164 29bc 6dda c1bc
00000010: 3f73 d6b8 182c a03c 2eaa 453d 532b dd3d
00000020: 616b 433d 241a 7fbc 540a b1bb c757 67bc
00000030: 910f 4dba 1d32 1fbc 5fee 033d 368a 67bd
0.046515957 -0.047653724 -0.010338814 -0.023663724 -0.000102257814 0.019552276 0.048258 0.10799279
0.047709826 -0.015570197 -0.0054028425 -0.014120049 -0.0007822449 -0.009716538 0.03220975 -0.056528293

conv_net.conv_net.6.weight f4 [8, 16, 5]
00000000: 3ce4 013e 7292 523e 1779 593e eabc 373c
00000010: fde6 3d3d 63c1 1c3d ab49 d0bc d45c f03d
00000020: 12e6 26be 5e9e d23d 64b9 69be 97b6 dabd
00000030: 784e 45bd a429 d63d cd2f 74bd a7b2 46bd
00000040: 2ba0 963e e76f a73d 358f 01be 83d5 dbbd
00000050: eb80 03be 50ac 8ebe 4d4b 663d 4264 cdbd
00000060: 1390 c9bd cb57 be3d a394 c2bd 045c 29be
00000070: 3b1a 513d c2c8 113e 9b00 a83d 766b af3e
00000080: 4cae 5abd 4d0c b13d 6be8 25bd 7374 fdbb
00000090: 0fc4 803d e1a0 42be 5563 0b3e fb33 c5bd
000000a0: fc50 ea3c 7ab2 0d3d 3cf2 0d3d be10 103d
000000b0: 2db1 ab3c df22 ab3a ae11 623a b551 dd39
000000c0: 21d9 a439 6cea 8f39 4677 12bd d734 b0bd
000000d0: fe7f b33d 8ab4 1f3d ff09 bfbd 4b9b 763c
000000e0: 827b a7bd 187e 5e3d 7049 023e 7d62 babb
000000f0: e9d9 00bd 6efd 60bd dfcd 15bd 0d75 3abd
00000100: 09da 3a3c c697 30bd a5ab 50bd 0a7b 8e3d
00000110: 9e59 733e b2ab bd3d 8124 4b3d 942a 053d
00000120: 6a56 7d3d 4a17 ad3d da4b 923d 2df0 2b3e
00000130: 24bc 1ebd fbf3 d8bd 8854 15bd eeba 1ebe
00000140: 2e9e d1bc 1bf2 e23c d3aa 443c 5afa df3a
00000150: 404b f9bb e3b8 9bbb 9400 20bd df43 69bc
00000160: 0049 68bc 218b 2fbc 155b 1c3d 7720 8dbd
00000170: 93ca 713d 7dae debc cfbb 32bc b7b9 c6bc
00000180: 2f68 c5bc 6fa5 b7bc 8949 8bbc 88f6 1dbc
00000190: 8c33 42bd 580b 96bc 10cd 183d 0332 21bd
000001a0: aac0 0cbc 5d59 e03b 518e 79bc 984f 64bc
000001b0: 77cf bf3b 2583 aabb 827e 17bd dba2 dbbb
000001c0: 09ca 3dbc 86cc 39bb 498d 7dbb afbf 26bc
000001d0: 9745 6fbc 164f 3abc e457 29bb 7867 19bb
000001e0: 9cbd 74bb 1a0e 86bb 5976 8cbb fe49 94bb
000001f0: aba3 98bb 9288 6b82 8e30 0c01 8e9e 8181
00000200: ed4f f481 a41a 2782 ad5e babb 55d1 6dbd
00000210: 902a 29bd 4935 9dbb ffa8 87bb d6ab 66bd
00000220: 9838 1ebc ec8b d6bc 2e4a afbb 68a8 b5bb
00000230: 783c 99bb 0ad8 86bb f045 eaba e20a 3fbc
00000240: ad60 dabb a682 0a93 2166 5bb8 a397 9abb
00000250: e3be ccbb ce2d 74bb 4889 92bc fe36 c53d
00000260: 50f8 b0bd f88a b2bd 25b4 6dbc e11f b0bc
00000270: fa2b 78bc 4c01 91bc b231 75bc 7aea 25bc
00000280: 0607 f23d 7fea 633e acdb 023e a5a7 08bc
00000290: 3f26 413e a0b6 16be e9c3 25bd 17ba 0ebe
000002a0: da5d 6f3e 0498 07be c164 903c 631e b03c
000002b0: e471 e3bd 1045 bfbd 4176 f13d ae55 11be
000002c0: ffb7 2ebe 5fd3 94bd d8af 383a 5efa b73c
000002d0: 5e3a 1d3e 64f1 8f3d 98e0 91bd 3e60 9b3d
000002e0: b57a 03bb c2f1 c63d 3ac5 4a3e 3ce3 523d
000002f0: cf80 2cbe a62f b7bd f340 553e 1b37 19bd
00000300: 5f03 e53d 0225 a5bc 193b 973d 6eef 913d
00000310: b53c 1f3d 0ca9 fb3d 1f83 653c fb58 25be
00000320: 48c1 9e3d cc65 203d 1553 093d 937a f53c
00000330: 6011 21bc 5fc7 cf3c bc84 0dbb 8b67 54bc
00000340: 014e 75bc 83f8 75bc 6817 a6be d39f 88bd
00000350: 2b00 b03b 6066 afbe 29aa 133d 2f08 18be
00000360: 937f ad3b 98fb fabd a8cd 5cbe 9ebc fabc
00000370: 1c34 d13d 3bf7 7d3e 142d 44be 0adc d6bd
00000380: 83f4 0cbe 35eb 60be 11a8 14bd 918a 6dbd
00000390: ffb3 52bd dd88 6d3d 2480 8c3e fa12 173e
000003a0: ad0a dbbd e12d 0b3e 6af9 55bd 4516 dfbd
000003b0: 8d4a ccbd 08f3 c73d 28d8 063d d475 00be
000003c0: e173 bdbd 572f 343d 73f5 48bc 5e4f 983c
000003d0: 190b 1b3d 32c3 8b3d 1f3c 49bc d87d 1bbd
000003e0: b110 893d 47b3 293e c21a 1cbe 82d7 193d
000003f0: 6239 2e3d 27d3 843d 8d75 813e 86c1 663e
0.12684721 0.20563677 0.21237598 0.011214474 0.046362866 0.038270365 -0.025425753 0.117364556
-0.16298702 0.102841124 -0.22824627 -0.106793575 -0.048170537 0.10457161 -0.0596159 -0.04851022
0.29419073 0.081756406 -0.12652285 -0.107340835 -0.12842147 -0.2786584 0.056224156 -0.10028888
-0.09841933 0.09294089 -0.095010065 -0.16539007 0.051050406 0.1423674 0.082032405 0.34261674
-0.05338888 0.08644924 -0.040504854 -0.007734829 0.06287395 -0.19006683 0.13612111 -0.09629055
0.02860307 0.034594037 0.03465484 0.035172217 0.020958507 0.0013056657 0.00086238503 0.0004221328
0.0003144229 0.00027449743 -0.03575828 -0.086038284 0.08764647 0.038990535 -0.093280785 0.015051673
-0.08177854 0.05431947 0.12723327 -0.0056880102 -0.031457815 -0.05492919 -0.036573287 -0.045521785
0.011404523 -0.043113492 -0.050944943 0.069570616 0.23764655 0.09261264 0.04959536 0.03251131
0.06184999 0.08451708 0.07143374 0.16790839 -0.038753644 -0.105934106 -0.03645757 -0.15500996
-0.025588121 0.027703336 0.012003618 0.001708816 -0.0076078475 -0.004752265 -0.03906305 -0.014237373
-0.014177561 -0.010714323 0.0381728 -0.06890958 0.05903108 -0.027182812 -0.010909035 -0.024258478
-0.02409753 -0.022417752 -0.017002838 -0.009641297 -0.04741244 -0.018315956 0.037304938 -0.039354336
-0.008590857 0.0068465904 -0.015231685 -0.013934992 0.005853589 -0.005203622 -0.03698588 -0.0067027635
-0.0115838135 -0.0028350665 -0.003868895 -0.010177537 -0.014603994 -0.011371395 -0.002583974 -0.002340762
-0.0037344461 -0.0040910365 -0.004286569 -0.004525422 -0.0046581826 -1.7304267e-37 2.5748775e-38 -4.761463e-38
-8.974613e-38 -1.2276868e-37 -0.0056875558 -0.058060963 -0.041300356 -0.004797612 -0.004140019 -0.05631622
-0.009657048 -0.026189767 -0.005349419 -0.005543757 -0.004676398 -0.0041151093 -0.0017873626 -0.0116603095
-0.0066643567 -1.7482463e-27 -5.2308784e-05 -0.0047177835 -0.0062483414 -0.0037258747 -0.017887726 0.096296296
-0.08641112 -0.087179124 -0.014508282 -0.021499576 -0.015147204 -0.017700814 -0.014965462 -0.010126704
0.11817746 0.22257422 0.1277911 -0.008340751 0.18862246 -0.14718103 -0.040470038 -0.13938175
0.23375645 -0.13241583 0.017626168 0.021498865 -0.11105707 -0.093393445 0.11790133 -0.1419284
-0.17062376 -0.07266878 0.0007045246 0.022458252 0.15354297 0.070284635 -0.07122916 0.07586716
-0.0020062153 0.097140804 0.19801798 0.05148624 -0.16846012 -0.08944635 0.20825557 -0.03740607
0.111822836 -0.020159248 0.07384319 0.07125746 0.038876254 0.122881025 0.0140083125 -0.16147225
0.07751709 0.03915958 0.0335265 0.029965675 -0.009830803 0.025363622 -0.0021594008 -0.01296414
-0.014972211 -0.015012863 -0.32439733 -0.06671109 0.005371114 -0.34257793 0.03605095 -0.14846872
0.005294749 -0.12255019 -0.21562827 -0.030607518 0.10215017 0.24801342 -0.19157821 -0.10491188
-0.13765149 -0.21964724 -0.036293093 -0.057993475 -0.05144119 0.05799185 0.27441514 0.14753333
-0.106953956 0.1359172 -0.052239813 -0.108929195 -0.09975157 0.097631514 0.032920986 -0.12544948
-0.09250618 0.04399046 -0.012265551 0.018592533 0.03785238 0.0682434 -0.0122824 -0.03796181
0.06692637 0.16572295 -0.15244582 0.03755904 0.042535193 0.064855866 0.25284997 0.22534761

conv_net.conv_net.6.bias f4 [8]
00000000: b70b 023d b12c c3bc b022 203d c7dc 91bd
00000010: 5244 b83c 6b83 853d 6864 89bc 9853 303d
0.031749453 -0.023825021 0.03909558 -0.07122188 0.022493515 0.065192066 -0.01677151 0.04304847

l0.sigma f4 [2]
00000000: 3d19 63c0 8c03 63c0
-3.5484154 -3.5470915

l0.g.0.weight f4 [8, 2]
00000000: 47b0 123d aebf 1b3f 8348 10bf e0ee 6fbe
00000010: e695 2c3f cf30 43bf 4d25 24bf 8d24 2abf
00000020: 1332 3ebf 53b1 12bd 8658 2ebf b4f6 8f3e
00000030: bd7e 9c3d 830f b53e 51ab ca3e fbe5 1a3f
0.035812642 0.60839355 -0.56360644 -0.23430967 0.67416227 -0.7624635 -0.64119416 -0.6646202
-0.7429516 -0.03581364 -0.68103826 0.28117907 0.07641361 0.35363397 0.3958383 0.6050717

l0.g.0.bias f4 [8]
00000000: 7e79 12bc c4aa fbbc 536d f4bc c7ae f4b9
00000010: 410f c3bd 9640 8d39 6db4 15bd e9be 61bd
-0.008940099 -0.030721076 -0.029837286 -0.00046669526 -0.09524394 0.00026941736 -0.03654902 -0.055113707

mean_layer.sigma f4 [8]
00000000: 9241 5cc0 b3ff 11bf 0910 5fc0 865b 51c0
00000010: b391 5ac0 859f 5ac0 df8a 61c0 67af 4fc0
-3.441502 -0.5703079 -3.4853537 -3.2712111 -3.4151428 -3.4159863 -3.524101 -3.2450807

mean_layer.g.0.weight f4 [1, 8]
00000000: a7ca 5bbe ee87 a83d 91bc f93e 85c1 b43e
00000010: f13d 9cbe 8074 6b3e 1a65 c13e 55da 3cbe
-0.21464024 0.082290515 0.48776677 0.35303894 -0.30516008 0.2299366 0.37772447 -0.18442662

sigma_layer.sigma f4 [8]
00000000: 0db1 59c0 4be5 39b5 938a 5cc0 b04e 60c0
00000010: bfd8 5fc0 9d07 1ac0 9279 62c0 f04a 4fc0
-3.4014313 -6.9251536e-07 -3.445958 -3.5048027 -3.4976041 -2.4067147 -3.53867 -3.2389488

sigma_layer.g.0.weight f4 [1, 8]
00000000: a0ab 8ebe 4dc3 12bc 3231 53bf 92b5 d1be
00000010: 5a78 7bbe 9762 073f 3772 7f3f cc02 81be
-0.27865314 -0.008957696 -0.8249694 -0.4095884 -0.24557629 0.5288481 0.99783653 -0.25197446

exp_avg f4 [16, 8, 5]
00000000: b24b 6e3e 854c 6b3e 75f1 603e f86b 533e
00000010: 79ba 483e b566 373e 7467 293e 7c2d 343e
00000020: 55b9 533e 719a 803e b8b0 173f 759d 1b3f
00000030: 31eb 1b3f 4b14 173f 8bba 133f 7235 883e
00000040: 6735 823e 0be6 8b3e 90e8 a13e 462f c03e
00000050: 1c95 bd3d ad0d 9a3d 3d8b a93d a95a e43d
00000060: d44b 1b3e 7cb4 cc3d 92a3 ac3d 9010 b03d
00000070: 8fe6 d53d cfa3 063e f9b8 963e c011 973e
00000080: 8112 933e d4ab 8b3e 8074 853e fb25 a73e
00000090: fc7b ab3e 7bae a33e b9dc 903e ef0c 783e
000000a0: 3b40 07c0 ca67 08c0 c35e 08c0 3ae4 06c0
000000b0: 9a34 05c0 b2bf 28c0 06d7 2ec0 82f4 33c0
000000c0: 1049 35c0 7072 34c0 fb70 9cc0 16a9 98c0
000000d0: 18ec 96c0 f700 96c0 3967 95c0 7e3d 4fc0
000000e0: 52b1 55c0 d9e8 5bc0 a9fe 5dc0 1060 5dc0
000000f0: fe04 03c0 413f 0ac0 c994 0fc0 86a9 10c0
00000100: 37c4 0fc0 be47 e2bf 3042 f1bf 9ad9 fabf
00000110: ebef fbbf d88d f9bf 8216 21c0 ee0b 21c0
00000120: 1387 20c0 32f3 1ec0 bd5c 1dc0 623f 24c0
00000130: d65b 20c0 a367 1cc0 78f1 18c0 05d1 16c0
00000140: 6aa7 483e 5501 2a3e ba7c ef3d f4c0 913d
00000150: 5bd7 393d 42c6 9cbe bd0f 6ebe 6cee 2dbe
00000160: 3325 0abe e28a 12be 6fa6 27be d86c 89be
00000170: 6e28 aabe ce65 9cbe 728a 38be 5516 d8be
00000180: 5394 b0be 260c 8abe 87be 59be 8a37 48be
00000190: 5688 92be 53b3 51be 9e05 0ebe 400c ddbd
000001a0: 7175 03be b7bf 30be 0abd 9ebd cc6f 0fbc
000001b0: e716 123c 40fd 13bd 17ae e13d c05a ad3d
000001c0: 8750 4c3d 4ea9 d83c 9b70 d63c 8206 843e
000001d0: 967e 3f3e 2a85 e63d 2089 903d 6679 aa3d
000001e0: 6a6e 893f 9a0f 893f 1f2f 873f 24b7 823f
000001f0: 7b9c 703f 8752 d43d 83bf c23e cffa 183f
00000200: 6210 373f 45b3 313f 6006 8dbe 1aaa 3bbf
00000210: a49a 88bf 619a 9cbf 46a5 8ebf 37f6 89be
00000220: b541 15bc f68f 533e f690 ab3e d83b b63e
00000230: 90f6 b93e 494c 313f 9864 6f3f a5a9 873f
00000240: 9a1b 823f 9cb5 1f3f 0067 803f 18bc a43f
00000250: a190 b73f 190c b03f fb4b 543f daf3 493f
00000260: 1c76 403f ad0d 383f 4714 2e3f 346b 8d3f
00000270: b40a 663f f052 393f 4ff1 1b3f c77a 103f
00000280: 2da9 a73e 64fd aa3e 647b a83e 9f98 a63e
00000290: 23c5 a53e 785c 423f 89d1 4d3f 642a 303f
000002a0: 965f ed3e 9569 853e 4fa2 263f c01c 253f
000002b0: 4df6 5a3f f686 953f 6284 b53f dd82 663f
000002c0: dd36 743f 93ea 573f 6c22 1e3f f516 d63e
000002d0: a2bb 2e3f 2683 353f 7a78 0e3f 91a7 933e
000002e0: d17f 383d d16a 213f 106b 263f f773 f23e
000002f0: 07af 3a3e 8cc0 91bd 2be6 c93e b987 c73e
00000300: 7b79 cd3e 618b da3e f453 e63e 9262 6c3e
00000310: ec5d 463e f441 8c3e 6cc7 dd3e 0b5b 123f
00000320: b952 9e40 6a66 a040 1475 a240 f6da a440
00000330: c81c a840 59ef 423f bd0b 493f 73c9 773f
00000340: 42a6 9a3f 8027 b93f 602f 8f40 da99 8b40
00000350: b32c 8140 6f2f 6740 09b1 4a40 c8f3 e03b
00000360: 9360 e93b 8ba0 263e 02bd b93e 139e 093f
00000370: 28c0 083f bcb6 1b3f e822 603f a957 9a3f
00000380: fe41 c33f 0eed aa3f a80c b53f 104f d93f
00000390: 1e25 0440 12b7 1c40 8789 9040 f2bf 9140
000003a0: 6c50 9240 9dd2 9240 59f1 9340 58e1 c240
000003b0: f5e1 c340 bb72 c140 140f be40 abb6 bb40
000003c0: 91d5 f4c0 5223 f6c0 d3d6 f6c0 1f86 f7c0
000003d0: 2a00 f8c0 dc50 34c0 1532 30c0 2aa8 31c0
000003e0: b9fb 37c0 1dfb 40c0 4a48 efc0 cf71 f0c0
000003f0: 7edf ecc0 ecf0 e4c0 769c dac0 fc43 07c0
0.23271063 0.22978409 0.21967109 0.20646656 0.19602384 0.17910273 0.1654337 0.17595476
0.20676167 0.2511783 0.59254026 0.60787135 0.6090575 0.5901534 0.57706517 0.26603276
0.25431368 0.27323946 0.31622744 0.37536067 0.09256956 0.0752214 0.08278511 0.111501046
0.15165645 0.09995362 0.08429636 0.08596909 0.10444366 0.13148426 0.29437998 0.2950573
0.28725055 0.27279532 0.26065445 0.32646164 0.3349303 0.31969056 0.28293398 0.24223684
-2.1132953 -2.1313348 -2.1307838 -2.1076798 -2.0813355 -2.6367002 -2.731874 -2.8117986
-2.8325844 -2.8194847 -4.8887916 -4.7706404 -4.71632 -4.687618 -4.6688504 -3.2381282
-3.3389478 -3.436087 -3.4686682 -3.4589882 -2.0471797 -2.1601107 -2.2434561 -2.260347
-2.246351 -1.7678144 -1.8848324 -1.9597657 -1.9682592 -1.9496412 -2.5169988 -2.5163531
-2.5082443 -2.4835935 -2.4587853 -2.5663686 -2.5056052 -2.4438255 -2.389738 -2.3565075
0.19595113 0.1660207 0.116937116 0.07116881 0.045371395 -0.3062001 -0.23248191 -0.16985482
-0.13490753 -0.14310792 -0.16372083 -0.26840854 -0.3323397 -0.3054642 -0.18021563 -0.42204538
-0.34488162 -0.26962394 -0.21264087 -0.19552436 -0.2861964 -0.20478563 -0.1386933 -0.10793352
-0.12837769 -0.17260633 -0.077509 -0.008754682 0.008916593 -0.03613019 0.11019533 0.08464575
0.049881484 0.026447918 0.026176741 0.25786215 0.18700632 0.11255868 0.070574045 0.08323936
1.0736821 1.0707886 1.0561255 1.021214 0.9398877 0.10367303 0.38036737 0.59757704
0.71509373 0.6941417 -0.27543926 -0.7330643 -1.0672193 -1.2234613 -1.1144187 -0.2694566
-0.009109904 0.20660385 0.33509034 0.35592532 0.36320925 0.69257027 0.9351287 1.0598646
1.0164673 0.6238649 1.0031433 1.2869902 1.4341012 1.3753692 0.82928437 0.7888771
0.7518022 0.7189587 0.6799969 1.1048341 0.8986008 0.7239218 0.6091508 0.56437343
0.32746258 0.33396447 0.3290664 0.32538316 0.32376966 0.75922346 0.8039785 0.6881468
0.4636199 0.26057115 0.65091413 0.64496994 0.85532075 1.1681812 1.4181025 0.9004343
0.95396215 0.84342307 0.61771274 0.4181439 0.68255055 0.7090324 0.5565258 0.2883878
0.04504377 0.63053614 0.65007114 0.473541 0.1823083 -0.071168035 0.39433417 0.38970736
0.40131745 0.42684463 0.44985926 0.23084477 0.19371766 0.27394068 0.4331621 0.5717017
4.947598 5.0125017 5.076792 5.1517286 5.2535133 0.76146466 0.78533536 0.9679176
1.2081988 1.446518 4.474533 4.3625307 4.0367064 3.61227 3.1670554 0.0068649985
0.0071221082 0.1627218 0.36277014 0.5375683 0.5341821 0.60825706 0.8755326 1.2058002
1.5254514 1.3353593 1.4144487 1.6977253 2.0647655 2.4486737 4.516788 4.554681
4.572317 4.5882096 4.6232114 6.090008 6.1213326 6.045255 5.9393406 5.8660483
-7.65107 -7.6918116 -7.7137237 -7.735122 -7.75002 -2.8174353 -2.7530568 -2.775889
-2.874739 -3.0153267 -7.4775743 -7.5138927 -7.4022818 -7.1544094 -6.831599 -2.1135244

exp_avg_sq f4 [16, 8, 5]
00000000: 9509 5941 31e5 5541 66ed 5541 a52a 5941
00000010: e437 5e41 d475 5b42 c709 5742 bc56 5042
00000020: 3bbd 4942 0a31 4642 baac 3743 7839 3a43
00000030: f625 3c43 a446 3d43 fa1e 3d43 fbd6 d442
00000040: 1524 d342 fb60 ce42 847c c842 7031 c442
00000050: 6cac df41 3278 d641 b390 cb41 ae8c c241
00000060: 2648 bf41 0f8e 6441 cb52 5841 b1e8 4b41
00000070: a125 4341 05a7 4141 cf5e de41 63f5 dd41
00000080: 3205 df41 7694 e141 5481 e441 8007 a641
00000090: 336e a741 b28a ac41 bd35 b441 81f0 ba41
000000a0: a7e8 1843 8e4a 1643 f1b7 1443 c040 1443
000000b0: 4bd6 1443 1b10 8443 951b 8543 5cf2 8643
000000c0: baf6 8743 8805 8843 8163 7a44 3dd4 7a44
000000d0: 9b10 7a44 c21d 7944 2d23 7844 8342 db43
000000e0: 6479 de43 c919 e243 cd99 e343 efc6 e243
000000f0: 935f 1243 2f13 1343 c9c4 1543 00c7 1743
00000100: 50d2 1843 0251 c942 1b5a c942 82c4 cc42
00000110: 159e cf42 e274 d142 0881 6943 5366 6743
00000120: 90ee 6543 0f59 6543 e8a5 6543 f70d 6943
00000130: 1053 6443 242c 6043 9887 5e43 7d78 5f43
00000140: 6708 7f42 e70f 8142 88f2 8242 fe94 8442
00000150: 1bb2 8542 595e 4142 184b 2d42 d932 1c42
00000160: bd51 1342 21e1 1542 f2d9 2f43 7b3a 3b43
00000170: f76d 4543 a5e6 4a43 3a8e 4743 7520 7c42
00000180: ab4f 5f42 9b32 4542 b558 3642 330f 3842
00000190: c63f 0142 abad e241 0794 cb41 b52c c241
000001a0: 7cd4 c841 be44 0242 1d22 f041 f546 e541
000001b0: e2cc e441 a8bb ed41 8cae 8c42 78c4 8e42
000001c0: e105 9142 eca7 9242 961e 9342 49f5 aa42
000001d0: 94aa b342 89e6 bc42 fef3 c242 38a6 c242
000001e0: c87d 3443 d12b 3243 962d 2f43 c55b 2b43
000001f0: 3c3b 2743 f576 6043 860d 2e43 ba6a 1043
00000200: 0809 0743 f689 0b43 d54c 3b44 829b 5544
00000210: a76e 6d44 3f7c 7f44 abf5 8444 0051 b643
00000220: 59c4 9143 2e85 7343 c5a3 5e43 d970 5e43
00000230: 2d77 0a43 0881 be42 3b80 9842 974f 9a42
00000240: 4fa2 b142 b3a4 d342 328a 9a42 cda5 8d42
00000250: 9fe9 a142 3dad c342 ffa4 5e43 c355 6143
00000260: 0659 6243 d33c 6143 768f 5e43 9e37 8543
00000270: 3da9 8e43 2c5f 9543 9073 9743 cd20 9543
00000280: 3816 a541 69bf a441 0966 a341 e1e8 a141
00000290: d18e a041 95cd 6c41 e5af 6341 224e 5a41
000002a0: 4a9d 5241 f399 5041 d5d7 0842 eac2 0c42
000002b0: 6daa 1042 6a16 1342 1d7d 1242 2dc1 9041
000002c0: 135e 8b41 01ef 8641 1d0b 8441 d6fd 8341
000002d0: 6dea 4341 e18e 3a41 0b80 2f41 45fd 2441
000002e0: dd19 2041 7d8e 5f41 77ee 5441 003b 4641
000002f0: c81b 3741 0245 2e41 da81 9d41 917c 9e41
00000300: 160d 9f41 d150 9f41 3c26 9f41 57f1 bd41
00000310: dd71 c441 80ef ca41 e3e5 cf41 b073 d141
00000320: da08 2a45 68ba 2945 b63e 2945 2c8d 2845
00000330: f39f 2745 d5a2 5444 96b2 4c44 40d5 4944
00000340: 3978 4c44 a8d9 5444 f030 3d45 c237 4345
00000350: 1654 4645 6ed7 4545 6881 4145 6ee6 2944
00000360: b528 2444 53b7 2244 9eb7 2544 715d 2d44
00000370: 844c 2944 add5 1f44 65f5 1b44 2c44 1e44
00000380: dc31 2744 5404 7744 a303 6a44 ea23 6444
00000390: ac64 6644 773e 7144 60fd 1d45 553d 1e45
000003a0: ac22 1e45 c89e 1d45 8aaa 1c45 307f 5f45
000003b0: 51e1 6145 8d66 6245 c2de 6045 d53a 5d45
000003c0: d2b5 7745 bd0c 7845 3dbc 7745 4099 7645
000003d0: 7d8d 7445 2d4f 3e44 7494 3844 94b5 3744
000003e0: f591 3c44 656b 4744 7f07 1245 4b30 1545
000003f0: ad18 1645 167d 1445 fb59 1045 8a8e bf43
13.564839 13.368455 13.370459 13.572911 13.888645 54.865067 53.75955 52.0847
50.434795 49.54789 183.67471 186.22449 188.14828 189.27594 189.121 106.41988
105.57047 103.189415 100.243195 98.09656 27.95919 26.80869 25.445654 24.318691
23.910229 14.284682 13.520213 12.744309 12.196687 12.103276 27.796293 27.744818
27.877537 28.19749 28.563148 20.753662 20.928808 21.567722 22.52624 23.367434
152.9088 150.29123 148.71852 148.25293 148.83708 264.12582 266.21548 269.89343
271.92755 272.0432 1001.55475 1003.3162 1000.25946 996.46497 992.5496 438.51962
444.94836 452.20145 455.20157 453.55417 146.37334 147.07494 149.76869 151.77734
152.82153 100.65822 100.67599 102.383804 103.808754 104.72829 233.50403 231.3997
229.93188 229.34789 229.64807 233.05455 228.32446 224.17242 222.52966 223.47066
63.758205 64.53106 65.473694 66.291 66.84786 48.342136 43.323334 39.049656
36.829823 37.469852 175.85135 187.22844 197.42955 202.90096 199.55557 63.031696
55.8278 49.29942 45.586628 46.014843 32.31228 28.334799 25.447279 24.27183
25.103752 32.56713 30.016657 28.659647 28.60004 29.716629 70.34091 71.38373
72.51148 73.32797 73.55974 85.47907 89.83316 94.450264 97.47655 97.324646
180.49133 178.17116 175.17807 171.35847 167.23138 224.46468 174.05283 144.4169
135.03528 139.53891 749.2005 854.4298 949.72894 1021.94135 1063.6771 364.6328
291.53397 243.52023 222.63972 222.44081 138.46553 95.252014 76.25045 77.15545
88.81701 105.82168 77.26991 70.82383 80.95629 97.838356 222.64452 225.335
226.34775 225.2376 222.5604 266.4345 285.32217 298.74353 302.90283 298.25626
20.635849 20.593462 20.424822 20.23871 20.069735 14.800191 14.230443 13.644075
13.163401 13.037585 34.210773 35.190346 36.16643 36.77189 36.62218 18.094324
17.420935 16.866701 16.505426 16.498943 12.244733 11.659883 10.9687605 10.311833
10.006314 13.972287 13.308219 12.389404 11.444283 10.891848 19.688404 19.810823
19.88139 19.914461 19.89367 23.742842 24.555597 25.366943 25.98725 26.181488
2720.5532 2715.6504 2707.9194 2696.8232 2681.9968 850.54425 818.7904 807.33203
817.8785 851.4009 3027.0586 3123.4849 3173.2554 3165.4644 3096.088 679.60046
656.63605 650.86444 662.869 693.46 677.19556 639.3387 623.8343 633.0652
668.77905 988.0676 936.0568 912.56116 921.573 964.976 2527.836 2531.8333
2530.167 2521.9238 2506.6587 3575.9492 3614.0823 3622.4094 3597.9224 3539.677
3963.3638 3968.7961 3963.765 3945.5781 3912.843 761.2371 738.3196 734.83716
754.2806 797.67804 2336.4685 2387.0183 2401.5422 2375.8179 2309.6238 383.1136

exp_avg f4 [16]
00000000: 6f1e 2a3f 6720 c4c0 76a2 05be ff9d 4b3f
00000010: fedb 903f 593d d940 8c6f 40c1 e643 8f3d
00000020: 6977 37b4 7890 e1c0 ac4d 8ec0 34d2 c0c0
00000030: c877 18bf 7d08 883e b0e4 86c0 9e5f 2a41
0.6645269 -6.1289554 -0.13050255 0.7953796 1.1317136 6.7887387 -12.027233 0.069953725
-1.7086644e-07 -7.0488853 -4.4469814 -6.0256596 -0.5955777 0.26568976 -4.215416 10.648344

exp_avg_sq f4 [16]
00000000: af3c 6d43 5016 b644 8eb9 9d43 3bb9 9444
00000010: 4ce8 9d42 334b 0246 1e88 1046 5f4f 4c43
00000020: dc5a fb31 47ff 2947 2e89 8645 a8e3 2845
00000030: a4aa 5b44 d6e8 e842 6788 e543 3aed b646
237.23705 1456.6973 315.44965 1189.7885 78.953705 8338.8 9250.029 204.31004
7.315391e-09 43519.277 4305.1475 2702.2285 878.66626 116.45476 459.06564 23414.613

exp_avg f4 [32, 16, 5]
00000000: ce04 9bb8 2b60 1eb7 bfc3 9f33 315d 1335
00000010: 28a3 d2b4 ebb2 a53c ad1c 1d3c 2f32 6b3c
00000020: a841 353d a193 ab3d 4dd7 efbd d39d 34bd
00000030: 3179 8dbc 3169 dfbc 3296 23bd 49a7 b23e
00000040: f1cf 8f3e d54d 523e 0ff4 ea3d f05a 943c
00000050: 5d52 67be a916 1fbe 3304 b4bd be08 e9bc
00000060: eae9 e03c 74ca 343f f372 3b3f 1a90 423f
00000070: b151 4d3f 2c88 593f d173 09bf df9c ffbe
00000080: 7356 e7be 47ee cdbe ed4e babe 97e7 e03e
00000090: e680 dc3e e8bf b73e 3351 9c3e cd48 8f3e
000000a0: 1cdf d534 610e 9cb4 c485 8a31 9a39 3032
000000b0: 58c0 a631 1efe 33be 1e13 70be d4a1 99be
000000c0: 2213 bebe 1499 ebbe 2553 e43e 4cee e23e
000000d0: 63e7 d73e a5f0 d63e 33d2 e73e 588b 21bf
000000e0: ca95 13bf a6a5 07bf 53ae fcbe 609b efbe
000000f0: 0ca3 cd3e e842 b13e 8748 943e a414 803e
00000100: b743 4b3e ce65 f9ba 182e 393b 5c4d ba3a
00000110: 6516 b7bb b497 a0bc 3135 25be 8f40 babd
00000120: 5549 7e3b 4982 0f3d 4003 92bc 706a 023f
00000130: 18c3 1a3f 486b 323f a24c 4b3f 0dcb 683f
00000140: c9bb eebc 2d09 09bd 3cb1 1ebd 7e7e 34bd
00000150: bd4b 40bd 4ee5 6abe 3466 84be 4b0d 95be
00000160: b077 a9be 74f5 bbbe aec2 0d3f f2b0 0a3f
00000170: 51d9 0a3f b837 133f f1fe 223f f726 263f
00000180: 8fc6 3b3f 837b 4d3f f11a 573f 00ac 5b3f
00000190: f571 353e 0546 073e 4d35 c23d 0c66 6b3d
000001a0: 3e4e a73c 3caf 1dbe dc84 68be 5e02 95be
000001b0: d423 adbe 3b79 c0be 118b 023f 03bc 073f
000001c0: 9b22 083f 3ff9 063f 11f8 073f 82bd 38bd
000001d0: 9c21 b1bd 03be 4ebd a5c6 603d 686a 373e
000001e0: a4cb b0b3 d52e 7e34 4ca4 9734 ced9 ef33
000001f0: 5007 dd33 db67 e23f c3cc f03f 6435 fe3f
00000200: 6895 0540 d976 0b40 8b24 15bf bb43 1fbf
00000210: f40f 23bf 1aec 20bf 4f40 20bf a2cb f33f
00000220: 5712 f43f 583a f63f 4f25 fb3f e91e 0240
00000230: 68e2 fdbd 698c 55bd fb94 633d e856 383e
00000240: 3566 943e 1b4d 693a 7757 133b a8cf d938
00000250: 4478 9cba bae3 d03b 019e 7fbd 403d 25bb
00000260: d79c 8f3c 967c a83c 15ce e93c 60c5 57be
00000270: b03c a7be f3e8 e3be c79f 0cbf 03aa 1dbf
00000280: 9f8d c3b8 41e2 b7b7 7c2f 28b8 8169 94b7
00000290: f603 0080 ff1f 8739 0687 6639 8e13 a7b9
000002a0: d0e5 c4ba eed5 1cbb fc02 44bf c913 2cbf
000002b0: c3ee 18bf 7fc3 0abf a8fe 04bf 2f02 f1be
000002c0: 99f7 e7be 0562 edbe 5b63 f3be 8b07 f4be
000002d0: 548b fabe aa21 00bf bb68 efbe c38b e0be
000002e0: 0056 e1be 4af0 44bf 81a4 3ebf d7d1 37bf
000002f0: 24a0 33bf 0455 35bf bbad 07bf 618a 04bf
00000300: f284 01bf 2fb0 f9be c3be ecbe 063a 8fbe
00000310: 48f6 23be 6dd3 9cbd 5931 60bc 27e8 7d3c
00000320: 14a1 2334 e967 07b5 b587 bfb3 59b0 beb1
00000330: 43ae 1131 b736 c5bf 26f2 c2bf 6f03 c5bf
00000340: 2e68 c6bf 50cf c4bf 955d 3dbd 01fc ebbc
00000350: f5f5 93bc 3e6d 52bc 35a8 9abc 3118 15c0
00000360: 6ae5 15c0 473d 15c0 27e3 13c0 c929 12c0
00000370: 5f3f 67bd e475 423b e457 323d 4460 943d
00000380: 311b 8d3d 215d 413c 50cc 3e3c cd77 2f3c
00000390: 641d 1b3c 4920 fa3b 03b9 c3be c44b b4be
000003a0: 5756 a9be 245d a4be 2350 9bbe 7f04 8cbf
000003b0: aac5 8ebf 649b 8ebf d181 8ebf 9b2e 8fbf
000003c0: ba05 f23c aba2 e33c 3075 b73c 25ef 543c
000003d0: 49a4 9b38 7daa eebc 3e3c 55bd 0bce 8abd
000003e0: a655 b9bd dd7d e0bd e89e 0dbf 8c61 f8be
000003f0: 88d0 e5be 16fe ddbe 145d d3be 9b05 e0be
-7.391871e-05 -9.439925e-06 7.4396205e-08 5.489738e-07 -3.923426e-07 0.020226916 0.009589356 0.014355226
0.044252068 0.08377767 -0.11710987 -0.044095825 -0.017269703 -0.027271839 -0.03993816 0.34893253
0.28088334 0.20537503 0.11472332 0.018109769 -0.22590013 -0.15535988 -0.087898634 -0.028446551
0.027455289 0.7062142 0.73222274 0.7600113 0.80202776 0.84973407 -0.53692347 -0.4992437
-0.45183143 -0.40220854 -0.3638834 0.4392669 0.43067092 0.358886 0.305307 0.2798523
3.9836675e-07 -2.9067726e-07 4.031536e-09 1.0257645e-08 4.853103e-09 -0.17577407 -0.23444793 -0.30006278
-0.37123972 -0.46015227 0.44594684 0.4432243 0.42168722 0.41980472 0.45277557 -0.63103247
-0.57650435 -0.52987134 -0.4935175 -0.4679823 0.40163457 0.34621358 0.28961584 0.25015748
0.1985005 -0.0019027533 0.0028256234 0.0014213729 -0.0055873864 -0.019603588 -0.16133572 -0.09094345
0.0038801034 0.03503636 -0.017823815 0.5094366 0.6045394 0.6969495 0.7941381 0.9093483
-0.029142277 -0.033456016 -0.038743243 -0.044065945 -0.04694723 -0.22939035 -0.25859225 -0.29111704
-0.33099127 -0.36710703 0.5537518 0.5417625 0.5423785 0.57506895 0.6367026 0.64903206
0.7334985 0.8026659 0.84025484 0.85809326 0.17719252 0.13210304 0.094828226 0.057470366
0.020423051 -0.15398878 -0.22706932 -0.2910337 -0.33816397 -0.37592492 0.5099345 0.5302126
0.53177804 0.5272407 0.53112894 -0.045102604 -0.086489886 -0.050474178 0.054876942 0.17911685
-8.232681e-08 2.3672631e-07 2.8245483e-07 1.1168923e-07 1.02924446e-07 1.7687944 1.8812488 1.9860044
2.087244 2.179129 -0.58258885 -0.62212723 -0.6369622 -0.6286026 -0.6259813 1.9046519
1.9068097 1.9236555 1.9620761 2.0331366 -0.12396699 -0.05213586 0.055562 0.18001902
0.28984228 0.0008899734 0.0022482553 0.00010386045 -0.0011937697 0.0063748034 -0.062406544 -0.002521351
0.017530842 0.02056722 0.02854065 -0.21071386 -0.32663488 -0.44513664 -0.549313 -0.6158754
-9.3247036e-05 -2.1920658e-05 -4.0098545e-05 -1.7692104e-05 -1.421e-42 0.00025773045 0.0002198481 -0.00031867292
-0.0015022103 -0.0023931223 -0.76567054 -0.6721769 -0.5973932 -0.54204553 -0.51951075 -0.47071978
-0.4530609 -0.46363845 -0.4753674 -0.47662005 -0.48934424 -0.5005137 -0.4675959 -0.4385663
-0.44010925 -0.7692915 -0.74469763 -0.71804565 -0.7016623 -0.7083285 -0.52999467 -0.5177365
-0.50593483 -0.4876723 -0.4623929 -0.27973956 -0.16011918 -0.07657514 -0.01368364 0.015497244
1.5239158e-07 -5.044263e-07 -8.9188156e-08 -5.549776e-09 2.1199333e-09 -1.5407323 -1.5230148 -1.5391673
-1.5500543 -1.5375767 -0.046231825 -0.028806688 -0.018061617 -0.012843428 -0.018879035 -2.3296015
-2.3421273 -2.331865 -2.3107393 -2.2838004 -0.05645692 0.002967232 0.04354085 0.07244924
0.06889952 0.011801989 0.011645392 0.010709715 0.0094674565 0.007633243 -0.3822709 -0.35214055
-0.33073685 -0.3210231 -0.30334577 -1.0938872 -1.1154072 -1.1141171 -1.1133367 -1.1186098
0.029543746 0.027787527 0.022394747 0.01299647 7.4215764e-05 -0.02913403 -0.052059405 -0.06777581
-0.09049539 -0.109615065 -0.55320597 -0.48511922 -0.4488566 -0.43357915 -0.4128195 -0.43754277
